#loc = loc("/opt/inductor_cache/av/cavtpsjyymdo4lcy67nrucxapowavsqs6tl2d3fkgiugegimhtfd.py":18:0)
module {
  tt.func public @triton_(%arg0: !tt.ptr<bf16> {tt.divisibility = 16 : i32} loc("/opt/inductor_cache/av/cavtpsjyymdo4lcy67nrucxapowavsqs6tl2d3fkgiugegimhtfd.py":18:0), %arg1: !tt.ptr<bf16> {tt.divisibility = 16 : i32} loc("/opt/inductor_cache/av/cavtpsjyymdo4lcy67nrucxapowavsqs6tl2d3fkgiugegimhtfd.py":18:0), %arg2: i32 {tt.divisibility = 16 : i32} loc("/opt/inductor_cache/av/cavtpsjyymdo4lcy67nrucxapowavsqs6tl2d3fkgiugegimhtfd.py":18:0)) attributes {noinline = false} {
    %cst = arith.constant dense<1.000000e+00> : tensor<512xf32> loc(#loc1)
    %cst_0 = arith.constant dense<0.797884583> : tensor<512xf32> loc(#loc1)
    %cst_1 = arith.constant dense<4.471500e-02> : tensor<512xf32> loc(#loc1)
    %cst_2 = arith.constant dense<5.000000e-01> : tensor<512xf32> loc(#loc1)
    %cst_3 = arith.constant dense<12288> : tensor<512xi32> loc(#loc1)
    %c512_i32 = arith.constant 512 : i32 loc(#loc1)
    %0 = tt.get_program_id x : i32 loc(#loc2)
    %1 = arith.muli %0, %c512_i32 : i32 loc(#loc3)
    %2 = tt.make_range {end = 512 : i32, start = 0 : i32} : tensor<512xi32> loc(#loc4)
    %3 = tt.splat %1 : i32 -> tensor<512xi32> loc(#loc5)
    %4 = arith.addi %3, %2 : tensor<512xi32> loc(#loc5)
    %5 = arith.remsi %4, %cst_3 : tensor<512xi32> loc(#loc6)
    %6 = tt.splat %arg0 : !tt.ptr<bf16> -> tensor<512x!tt.ptr<bf16>> loc(#loc7)
    %7 = tt.addptr %6, %4 : tensor<512x!tt.ptr<bf16>>, tensor<512xi32> loc(#loc7)
    %8 = tt.load %7 : tensor<512x!tt.ptr<bf16>> loc(#loc8)
    %9 = arith.extf %8 : tensor<512xbf16> to tensor<512xf32> loc(#loc9)
    %10 = tt.splat %arg1 : !tt.ptr<bf16> -> tensor<512x!tt.ptr<bf16>> loc(#loc10)
    %11 = tt.addptr %10, %5 : tensor<512x!tt.ptr<bf16>>, tensor<512xi32> loc(#loc10)
    %12 = tt.load %11 evictionPolicy = evict_last : tensor<512x!tt.ptr<bf16>> loc(#loc11)
    %13 = arith.extf %12 : tensor<512xbf16> to tensor<512xf32> loc(#loc12)
    %14 = arith.addf %9, %13 : tensor<512xf32> loc(#loc13)
    %15 = arith.mulf %14, %cst_2 : tensor<512xf32> loc(#loc14)
    %16 = arith.mulf %14, %14 : tensor<512xf32> loc(#loc15)
    %17 = arith.mulf %16, %14 : tensor<512xf32> loc(#loc16)
    %18 = arith.mulf %17, %cst_1 : tensor<512xf32> loc(#loc17)
    %19 = arith.addf %14, %18 : tensor<512xf32> loc(#loc18)
    %20 = arith.mulf %19, %cst_0 : tensor<512xf32> loc(#loc19)
    %21 = tt.extern_elementwise %20 {libname = "", libpath = "", pure = true, symbol = "__nv_tanhf"} : (tensor<512xf32>) -> tensor<512xf32> loc(#loc20)
    %22 = arith.addf %21, %cst : tensor<512xf32> loc(#loc21)
    %23 = arith.mulf %15, %22 : tensor<512xf32> loc(#loc22)
    %24 = arith.truncf %23 : tensor<512xf32> to tensor<512xbf16> loc(#loc23)
    tt.store %7, %24 : tensor<512x!tt.ptr<bf16>> loc(#loc23)
    tt.return loc(#loc24)
  } loc(#loc)
} loc(#loc)
#loc1 = loc(unknown)
#loc2 = loc("/opt/inductor_cache/av/cavtpsjyymdo4lcy67nrucxapowavsqs6tl2d3fkgiugegimhtfd.py":20:28)
#loc3 = loc("/opt/inductor_cache/av/cavtpsjyymdo4lcy67nrucxapowavsqs6tl2d3fkgiugegimhtfd.py":20:33)
#loc4 = loc("/opt/inductor_cache/av/cavtpsjyymdo4lcy67nrucxapowavsqs6tl2d3fkgiugegimhtfd.py":21:36)
#loc5 = loc("/opt/inductor_cache/av/cavtpsjyymdo4lcy67nrucxapowavsqs6tl2d3fkgiugegimhtfd.py":21:23)
#loc6 = loc("/opt/inductor_cache/av/cavtpsjyymdo4lcy67nrucxapowavsqs6tl2d3fkgiugegimhtfd.py":24:18)
#loc7 = loc("/opt/inductor_cache/av/cavtpsjyymdo4lcy67nrucxapowavsqs6tl2d3fkgiugegimhtfd.py":25:34)
#loc8 = loc("/opt/inductor_cache/av/cavtpsjyymdo4lcy67nrucxapowavsqs6tl2d3fkgiugegimhtfd.py":25:39)
#loc9 = loc("/opt/inductor_cache/av/cavtpsjyymdo4lcy67nrucxapowavsqs6tl2d3fkgiugegimhtfd.py":25:48)
#loc10 = loc("/opt/inductor_cache/av/cavtpsjyymdo4lcy67nrucxapowavsqs6tl2d3fkgiugegimhtfd.py":26:30)
#loc11 = loc("/opt/inductor_cache/av/cavtpsjyymdo4lcy67nrucxapowavsqs6tl2d3fkgiugegimhtfd.py":26:35)
#loc12 = loc("/opt/inductor_cache/av/cavtpsjyymdo4lcy67nrucxapowavsqs6tl2d3fkgiugegimhtfd.py":26:74)
#loc13 = loc("/opt/inductor_cache/av/cavtpsjyymdo4lcy67nrucxapowavsqs6tl2d3fkgiugegimhtfd.py":27:18)
#loc14 = loc("/opt/inductor_cache/av/cavtpsjyymdo4lcy67nrucxapowavsqs6tl2d3fkgiugegimhtfd.py":30:18)
#loc15 = loc("/opt/inductor_cache/av/cavtpsjyymdo4lcy67nrucxapowavsqs6tl2d3fkgiugegimhtfd.py":31:18)
#loc16 = loc("/opt/inductor_cache/av/cavtpsjyymdo4lcy67nrucxapowavsqs6tl2d3fkgiugegimhtfd.py":32:18)
#loc17 = loc("/opt/inductor_cache/av/cavtpsjyymdo4lcy67nrucxapowavsqs6tl2d3fkgiugegimhtfd.py":34:18)
#loc18 = loc("/opt/inductor_cache/av/cavtpsjyymdo4lcy67nrucxapowavsqs6tl2d3fkgiugegimhtfd.py":35:19)
#loc19 = loc("/opt/inductor_cache/av/cavtpsjyymdo4lcy67nrucxapowavsqs6tl2d3fkgiugegimhtfd.py":37:20)
#loc20 = loc("/opt/inductor_cache/av/cavtpsjyymdo4lcy67nrucxapowavsqs6tl2d3fkgiugegimhtfd.py":38:27)
#loc21 = loc("/opt/inductor_cache/av/cavtpsjyymdo4lcy67nrucxapowavsqs6tl2d3fkgiugegimhtfd.py":40:20)
#loc22 = loc("/opt/inductor_cache/av/cavtpsjyymdo4lcy67nrucxapowavsqs6tl2d3fkgiugegimhtfd.py":41:19)
#loc23 = loc("/opt/inductor_cache/av/cavtpsjyymdo4lcy67nrucxapowavsqs6tl2d3fkgiugegimhtfd.py":43:40)
#loc24 = loc("/opt/inductor_cache/av/cavtpsjyymdo4lcy67nrucxapowavsqs6tl2d3fkgiugegimhtfd.py":43:4)
