#loc = loc("/opt/inductor_cache/pz/cpznml3oyu7tbn6gsmmr2sp2oh4c6lj3k3hxmjx7apwuatfv7asi.py":18:0)
#loc1 = loc(unknown)
module {
  tt.func public @triton_(%arg0: !tt.ptr<bf16> {tt.divisibility = 16 : i32} loc("/opt/inductor_cache/pz/cpznml3oyu7tbn6gsmmr2sp2oh4c6lj3k3hxmjx7apwuatfv7asi.py":18:0), %arg1: !tt.ptr<bf16> {tt.divisibility = 16 : i32} loc("/opt/inductor_cache/pz/cpznml3oyu7tbn6gsmmr2sp2oh4c6lj3k3hxmjx7apwuatfv7asi.py":18:0), %arg2: !tt.ptr<f32> {tt.divisibility = 16 : i32} loc("/opt/inductor_cache/pz/cpznml3oyu7tbn6gsmmr2sp2oh4c6lj3k3hxmjx7apwuatfv7asi.py":18:0), %arg3: i32 loc("/opt/inductor_cache/pz/cpznml3oyu7tbn6gsmmr2sp2oh4c6lj3k3hxmjx7apwuatfv7asi.py":18:0), %arg4: i32 {tt.divisibility = 16 : i32} loc("/opt/inductor_cache/pz/cpznml3oyu7tbn6gsmmr2sp2oh4c6lj3k3hxmjx7apwuatfv7asi.py":18:0)) attributes {noinline = false} {
    %c128_i32 = arith.constant 128 : i32 loc(#loc1)
    %c24_i32 = arith.constant 24 : i32 loc(#loc1)
    %cst = arith.constant dense<0.000000e+00> : tensor<1x128xf32> loc(#loc1)
    %cst_0 = arith.constant dense<0.000000e+00> : tensor<1x128xbf16> loc(#loc1)
    %0 = tt.get_program_id x : i32 loc(#loc2)
    %1 = arith.cmpi slt, %0, %arg3 : i32 loc(#loc3)
    %2 = tt.splat %1 : i1 -> tensor<1x1xi1> loc(#loc3)
    %3 = tt.make_range {end = 128 : i32, start = 0 : i32} : tensor<128xi32> loc(#loc4)
    %4 = tt.expand_dims %3 {axis = 0 : i32} : tensor<128xi32> -> tensor<1x128xi32> loc(#loc5)
    %5 = arith.remsi %0, %c24_i32 : i32 loc(#loc6)
    %6 = arith.muli %0, %c128_i32 : i32 loc(#loc7)
    %7 = tt.splat %6 : i32 -> tensor<1x128xi32> loc(#loc8)
    %8 = arith.addi %4, %7 : tensor<1x128xi32> loc(#loc8)
    %9 = tt.splat %arg0 : !tt.ptr<bf16> -> tensor<1x128x!tt.ptr<bf16>> loc(#loc9)
    %10 = tt.addptr %9, %8 : tensor<1x128x!tt.ptr<bf16>>, tensor<1x128xi32> loc(#loc9)
    %11 = tt.splat %1 : i1 -> tensor<1x128xi1> loc(#loc10)
    %12 = tt.load %10, %11, %cst_0 : tensor<1x128x!tt.ptr<bf16>> loc(#loc10)
    %13 = arith.extf %12 : tensor<1x128xbf16> to tensor<1x128xf32> loc(#loc11)
    %14 = arith.muli %5, %c128_i32 : i32 loc(#loc12)
    %15 = tt.splat %14 : i32 -> tensor<1x128xi32> loc(#loc13)
    %16 = arith.addi %4, %15 : tensor<1x128xi32> loc(#loc13)
    %17 = tt.splat %arg1 : !tt.ptr<bf16> -> tensor<1x128x!tt.ptr<bf16>> loc(#loc14)
    %18 = tt.addptr %17, %16 : tensor<1x128x!tt.ptr<bf16>>, tensor<1x128xi32> loc(#loc14)
    %19 = tt.load %18, %11, %cst_0 evictionPolicy = evict_last : tensor<1x128x!tt.ptr<bf16>> loc(#loc15)
    %20 = arith.extf %19 : tensor<1x128xbf16> to tensor<1x128xf32> loc(#loc16)
    %21 = arith.addf %13, %20 : tensor<1x128xf32> loc(#loc17)
    %22 = arith.mulf %21, %21 : tensor<1x128xf32> loc(#loc18)
    %23 = arith.select %11, %22, %cst : tensor<1x128xi1>, tensor<1x128xf32> loc(#loc19)
    %24 = "tt.reduce"(%23) <{axis = 1 : i32}> ({
    ^bb0(%arg5: f32 loc(unknown), %arg6: f32 loc(unknown)):
      %28 = arith.addf %arg5, %arg6 : f32 loc(#loc29)
      tt.reduce.return %28 : f32 loc(#loc27)
    }) : (tensor<1x128xf32>) -> tensor<1xf32> loc(#loc27)
    %25 = tt.expand_dims %24 {axis = 1 : i32} : tensor<1xf32> -> tensor<1x1xf32> loc(#loc23)
    %26 = tt.addptr %arg2, %0 : !tt.ptr<f32>, i32 loc(#loc24)
    %27 = tt.splat %26 : !tt.ptr<f32> -> tensor<1x1x!tt.ptr<f32>> loc(#loc24)
    tt.store %27, %25, %2 : tensor<1x1x!tt.ptr<f32>> loc(#loc25)
    tt.return loc(#loc26)
  } loc(#loc)
} loc(#loc)
#loc2 = loc("/opt/inductor_cache/pz/cpznml3oyu7tbn6gsmmr2sp2oh4c6lj3k3hxmjx7apwuatfv7asi.py":21:28)
#loc3 = loc("/opt/inductor_cache/pz/cpznml3oyu7tbn6gsmmr2sp2oh4c6lj3k3hxmjx7apwuatfv7asi.py":23:21)
#loc4 = loc("/opt/inductor_cache/pz/cpznml3oyu7tbn6gsmmr2sp2oh4c6lj3k3hxmjx7apwuatfv7asi.py":24:26)
#loc5 = loc("/opt/inductor_cache/pz/cpznml3oyu7tbn6gsmmr2sp2oh4c6lj3k3hxmjx7apwuatfv7asi.py":24:34)
#loc6 = loc("/opt/inductor_cache/pz/cpznml3oyu7tbn6gsmmr2sp2oh4c6lj3k3hxmjx7apwuatfv7asi.py":29:18)
#loc7 = loc("/opt/inductor_cache/pz/cpznml3oyu7tbn6gsmmr2sp2oh4c6lj3k3hxmjx7apwuatfv7asi.py":30:40)
#loc8 = loc("/opt/inductor_cache/pz/cpznml3oyu7tbn6gsmmr2sp2oh4c6lj3k3hxmjx7apwuatfv7asi.py":30:36)
#loc9 = loc("/opt/inductor_cache/pz/cpznml3oyu7tbn6gsmmr2sp2oh4c6lj3k3hxmjx7apwuatfv7asi.py":30:30)
#loc10 = loc("/opt/inductor_cache/pz/cpznml3oyu7tbn6gsmmr2sp2oh4c6lj3k3hxmjx7apwuatfv7asi.py":30:46)
#loc11 = loc("/opt/inductor_cache/pz/cpznml3oyu7tbn6gsmmr2sp2oh4c6lj3k3hxmjx7apwuatfv7asi.py":30:67)
#loc12 = loc("/opt/inductor_cache/pz/cpznml3oyu7tbn6gsmmr2sp2oh4c6lj3k3hxmjx7apwuatfv7asi.py":31:40)
#loc13 = loc("/opt/inductor_cache/pz/cpznml3oyu7tbn6gsmmr2sp2oh4c6lj3k3hxmjx7apwuatfv7asi.py":31:36)
#loc14 = loc("/opt/inductor_cache/pz/cpznml3oyu7tbn6gsmmr2sp2oh4c6lj3k3hxmjx7apwuatfv7asi.py":31:30)
#loc15 = loc("/opt/inductor_cache/pz/cpznml3oyu7tbn6gsmmr2sp2oh4c6lj3k3hxmjx7apwuatfv7asi.py":31:46)
#loc16 = loc("/opt/inductor_cache/pz/cpznml3oyu7tbn6gsmmr2sp2oh4c6lj3k3hxmjx7apwuatfv7asi.py":31:97)
#loc17 = loc("/opt/inductor_cache/pz/cpznml3oyu7tbn6gsmmr2sp2oh4c6lj3k3hxmjx7apwuatfv7asi.py":32:18)
#loc18 = loc("/opt/inductor_cache/pz/cpznml3oyu7tbn6gsmmr2sp2oh4c6lj3k3hxmjx7apwuatfv7asi.py":33:18)
#loc19 = loc("/opt/inductor_cache/pz/cpznml3oyu7tbn6gsmmr2sp2oh4c6lj3k3hxmjx7apwuatfv7asi.py":36:33)
#loc20 = loc("/usr/local/lib/python3.10/site-packages/triton/language/standard.py":267:36)
#loc21 = loc("/opt/inductor_cache/pz/cpznml3oyu7tbn6gsmmr2sp2oh4c6lj3k3hxmjx7apwuatfv7asi.py":37:24)
#loc22 = loc("/usr/local/lib/python3.10/site-packages/triton/language/standard.py":256:15)
#loc23 = loc("/opt/inductor_cache/pz/cpznml3oyu7tbn6gsmmr2sp2oh4c6lj3k3hxmjx7apwuatfv7asi.py":37:27)
#loc24 = loc("/opt/inductor_cache/pz/cpznml3oyu7tbn6gsmmr2sp2oh4c6lj3k3hxmjx7apwuatfv7asi.py":38:25)
#loc25 = loc("/opt/inductor_cache/pz/cpznml3oyu7tbn6gsmmr2sp2oh4c6lj3k3hxmjx7apwuatfv7asi.py":38:36)
#loc26 = loc("/opt/inductor_cache/pz/cpznml3oyu7tbn6gsmmr2sp2oh4c6lj3k3hxmjx7apwuatfv7asi.py":38:4)
#loc27 = loc(callsite(#loc20 at #loc21))
#loc28 = loc(callsite(#loc22 at #loc20))
#loc29 = loc(callsite(#loc28 at #loc21))
