#loc = loc("/opt/inductor_cache/of/cof6g6m5qkffha4wqg777dy5pcbphz6cc7w6vfxupilil3l5vhce.py":18:0)
module {
  tt.func public @triton_(%arg0: !tt.ptr<bf16> {tt.divisibility = 16 : i32} loc("/opt/inductor_cache/of/cof6g6m5qkffha4wqg777dy5pcbphz6cc7w6vfxupilil3l5vhce.py":18:0), %arg1: !tt.ptr<bf16> {tt.divisibility = 16 : i32} loc("/opt/inductor_cache/of/cof6g6m5qkffha4wqg777dy5pcbphz6cc7w6vfxupilil3l5vhce.py":18:0), %arg2: !tt.ptr<bf16> {tt.divisibility = 16 : i32} loc("/opt/inductor_cache/of/cof6g6m5qkffha4wqg777dy5pcbphz6cc7w6vfxupilil3l5vhce.py":18:0), %arg3: i32 loc("/opt/inductor_cache/of/cof6g6m5qkffha4wqg777dy5pcbphz6cc7w6vfxupilil3l5vhce.py":18:0), %arg4: i32 loc("/opt/inductor_cache/of/cof6g6m5qkffha4wqg777dy5pcbphz6cc7w6vfxupilil3l5vhce.py":18:0), %arg5: i32 {tt.divisibility = 16 : i32} loc("/opt/inductor_cache/of/cof6g6m5qkffha4wqg777dy5pcbphz6cc7w6vfxupilil3l5vhce.py":18:0)) attributes {noinline = false} {
    %cst = arith.constant dense<0.000000e+00> : tensor<512xbf16> loc(#loc1)
    %c-1_i32 = arith.constant -1 : i32 loc(#loc1)
    %cst_0 = arith.constant dense<3072> : tensor<512xi32> loc(#loc1)
    %c512_i32 = arith.constant 512 : i32 loc(#loc1)
    %0 = tt.get_program_id x : i32 loc(#loc2)
    %1 = arith.muli %0, %c512_i32 : i32 loc(#loc3)
    %2 = tt.make_range {end = 512 : i32, start = 0 : i32} : tensor<512xi32> loc(#loc4)
    %3 = tt.splat %1 : i32 -> tensor<512xi32> loc(#loc5)
    %4 = arith.addi %3, %2 : tensor<512xi32> loc(#loc5)
    %5 = tt.splat %arg5 : i32 -> tensor<512xi32> loc(#loc6)
    %6 = arith.cmpi slt, %4, %5 : tensor<512xi32> loc(#loc6)
    %7 = arith.divsi %4, %cst_0 : tensor<512xi32> loc(#loc7)
    %8 = arith.remsi %4, %cst_0 : tensor<512xi32> loc(#loc8)
    %9 = tt.splat %arg3 : i32 -> tensor<512xi32> loc(#loc9)
    %10 = arith.cmpi slt, %7, %9 : tensor<512xi32> loc(#loc9)
    %11 = arith.muli %7, %cst_0 : tensor<512xi32> loc(#loc10)
    %12 = arith.addi %8, %11 : tensor<512xi32> loc(#loc11)
    %13 = tt.splat %arg0 : !tt.ptr<bf16> -> tensor<512x!tt.ptr<bf16>> loc(#loc12)
    %14 = tt.addptr %13, %12 : tensor<512x!tt.ptr<bf16>>, tensor<512xi32> loc(#loc12)
    %15 = arith.andi %10, %6 : tensor<512xi1> loc(#loc13)
    %16 = tt.load %14, %15, %cst : tensor<512x!tt.ptr<bf16>> loc(#loc14)
    %17 = arith.extf %16 : tensor<512xbf16> to tensor<512xf32> loc(#loc15)
    %18 = arith.cmpi sge, %7, %9 : tensor<512xi32> loc(#loc16)
    %19 = arith.muli %arg3, %c-1_i32 : i32 loc(#loc17)
    %20 = tt.splat %19 : i32 -> tensor<512xi32> loc(#loc18)
    %21 = arith.addi %7, %20 : tensor<512xi32> loc(#loc18)
    %22 = arith.muli %21, %cst_0 : tensor<512xi32> loc(#loc19)
    %23 = arith.addi %8, %22 : tensor<512xi32> loc(#loc20)
    %24 = tt.splat %arg1 : !tt.ptr<bf16> -> tensor<512x!tt.ptr<bf16>> loc(#loc21)
    %25 = tt.addptr %24, %23 : tensor<512x!tt.ptr<bf16>>, tensor<512xi32> loc(#loc21)
    %26 = arith.andi %18, %6 : tensor<512xi1> loc(#loc22)
    %27 = tt.load %25, %26, %cst : tensor<512x!tt.ptr<bf16>> loc(#loc23)
    %28 = arith.extf %27 : tensor<512xbf16> to tensor<512xf32> loc(#loc24)
    %29 = arith.select %10, %17, %28 : tensor<512xi1>, tensor<512xf32> loc(#loc25)
    %30 = tt.splat %arg2 : !tt.ptr<bf16> -> tensor<512x!tt.ptr<bf16>> loc(#loc26)
    %31 = tt.addptr %30, %4 : tensor<512x!tt.ptr<bf16>>, tensor<512xi32> loc(#loc26)
    %32 = arith.truncf %29 : tensor<512xf32> to tensor<512xbf16> loc(#loc27)
    tt.store %31, %32, %6 : tensor<512x!tt.ptr<bf16>> loc(#loc27)
    tt.return loc(#loc28)
  } loc(#loc)
} loc(#loc)
#loc1 = loc(unknown)
#loc2 = loc("/opt/inductor_cache/of/cof6g6m5qkffha4wqg777dy5pcbphz6cc7w6vfxupilil3l5vhce.py":19:28)
#loc3 = loc("/opt/inductor_cache/of/cof6g6m5qkffha4wqg777dy5pcbphz6cc7w6vfxupilil3l5vhce.py":19:33)
#loc4 = loc("/opt/inductor_cache/of/cof6g6m5qkffha4wqg777dy5pcbphz6cc7w6vfxupilil3l5vhce.py":20:36)
#loc5 = loc("/opt/inductor_cache/of/cof6g6m5qkffha4wqg777dy5pcbphz6cc7w6vfxupilil3l5vhce.py":20:23)
#loc6 = loc("/opt/inductor_cache/of/cof6g6m5qkffha4wqg777dy5pcbphz6cc7w6vfxupilil3l5vhce.py":21:21)
#loc7 = loc("/opt/inductor_cache/of/cof6g6m5qkffha4wqg777dy5pcbphz6cc7w6vfxupilil3l5vhce.py":22:20)
#loc8 = loc("/opt/inductor_cache/of/cof6g6m5qkffha4wqg777dy5pcbphz6cc7w6vfxupilil3l5vhce.py":23:18)
#loc9 = loc("/opt/inductor_cache/of/cof6g6m5qkffha4wqg777dy5pcbphz6cc7w6vfxupilil3l5vhce.py":29:18)
#loc10 = loc("/opt/inductor_cache/of/cof6g6m5qkffha4wqg777dy5pcbphz6cc7w6vfxupilil3l5vhce.py":30:41)
#loc11 = loc("/opt/inductor_cache/of/cof6g6m5qkffha4wqg777dy5pcbphz6cc7w6vfxupilil3l5vhce.py":30:36)
#loc12 = loc("/opt/inductor_cache/of/cof6g6m5qkffha4wqg777dy5pcbphz6cc7w6vfxupilil3l5vhce.py":30:30)
#loc13 = loc("/opt/inductor_cache/of/cof6g6m5qkffha4wqg777dy5pcbphz6cc7w6vfxupilil3l5vhce.py":30:54)
#loc14 = loc("/opt/inductor_cache/of/cof6g6m5qkffha4wqg777dy5pcbphz6cc7w6vfxupilil3l5vhce.py":30:47)
#loc15 = loc("/opt/inductor_cache/of/cof6g6m5qkffha4wqg777dy5pcbphz6cc7w6vfxupilil3l5vhce.py":30:75)
#loc16 = loc("/opt/inductor_cache/of/cof6g6m5qkffha4wqg777dy5pcbphz6cc7w6vfxupilil3l5vhce.py":31:19)
#loc17 = loc("/opt/inductor_cache/of/cof6g6m5qkffha4wqg777dy5pcbphz6cc7w6vfxupilil3l5vhce.py":34:53)
#loc18 = loc("/opt/inductor_cache/of/cof6g6m5qkffha4wqg777dy5pcbphz6cc7w6vfxupilil3l5vhce.py":34:48)
#loc19 = loc("/opt/inductor_cache/of/cof6g6m5qkffha4wqg777dy5pcbphz6cc7w6vfxupilil3l5vhce.py":34:42)
#loc20 = loc("/opt/inductor_cache/of/cof6g6m5qkffha4wqg777dy5pcbphz6cc7w6vfxupilil3l5vhce.py":34:36)
#loc21 = loc("/opt/inductor_cache/of/cof6g6m5qkffha4wqg777dy5pcbphz6cc7w6vfxupilil3l5vhce.py":34:30)
#loc22 = loc("/opt/inductor_cache/of/cof6g6m5qkffha4wqg777dy5pcbphz6cc7w6vfxupilil3l5vhce.py":34:69)
#loc23 = loc("/opt/inductor_cache/of/cof6g6m5qkffha4wqg777dy5pcbphz6cc7w6vfxupilil3l5vhce.py":34:62)
#loc24 = loc("/opt/inductor_cache/of/cof6g6m5qkffha4wqg777dy5pcbphz6cc7w6vfxupilil3l5vhce.py":34:90)
#loc25 = loc("/opt/inductor_cache/of/cof6g6m5qkffha4wqg777dy5pcbphz6cc7w6vfxupilil3l5vhce.py":35:33)
#loc26 = loc("/opt/inductor_cache/of/cof6g6m5qkffha4wqg777dy5pcbphz6cc7w6vfxupilil3l5vhce.py":36:25)
#loc27 = loc("/opt/inductor_cache/of/cof6g6m5qkffha4wqg777dy5pcbphz6cc7w6vfxupilil3l5vhce.py":36:37)
#loc28 = loc("/opt/inductor_cache/of/cof6g6m5qkffha4wqg777dy5pcbphz6cc7w6vfxupilil3l5vhce.py":36:4)
