#loc = loc("/opt/inductor_cache/6e/c6enlnrynjsiytpvfrwupchvhqieecw255lhus6xgldihqvlgtit.py":18:0)
#loc1 = loc(unknown)
module {
  tt.func public @triton_(%arg0: !tt.ptr<bf16> {tt.divisibility = 16 : i32} loc("/opt/inductor_cache/6e/c6enlnrynjsiytpvfrwupchvhqieecw255lhus6xgldihqvlgtit.py":18:0), %arg1: !tt.ptr<bf16> {tt.divisibility = 16 : i32} loc("/opt/inductor_cache/6e/c6enlnrynjsiytpvfrwupchvhqieecw255lhus6xgldihqvlgtit.py":18:0), %arg2: !tt.ptr<f32> {tt.divisibility = 16 : i32} loc("/opt/inductor_cache/6e/c6enlnrynjsiytpvfrwupchvhqieecw255lhus6xgldihqvlgtit.py":18:0), %arg3: i32 {tt.divisibility = 16 : i32} loc("/opt/inductor_cache/6e/c6enlnrynjsiytpvfrwupchvhqieecw255lhus6xgldihqvlgtit.py":18:0), %arg4: i32 {tt.divisibility = 16 : i32} loc("/opt/inductor_cache/6e/c6enlnrynjsiytpvfrwupchvhqieecw255lhus6xgldihqvlgtit.py":18:0)) attributes {noinline = false} {
    %c128_i32 = arith.constant 128 : i32 loc(#loc1)
    %c24_i32 = arith.constant 24 : i32 loc(#loc1)
    %0 = tt.get_program_id x : i32 loc(#loc2)
    %1 = tt.make_range {end = 128 : i32, start = 0 : i32} : tensor<128xi32> loc(#loc3)
    %2 = tt.expand_dims %1 {axis = 0 : i32} : tensor<128xi32> -> tensor<1x128xi32> loc(#loc4)
    %3 = arith.remsi %0, %c24_i32 : i32 loc(#loc5)
    %4 = arith.muli %0, %c128_i32 : i32 loc(#loc6)
    %5 = tt.splat %4 : i32 -> tensor<1x128xi32> loc(#loc7)
    %6 = arith.addi %2, %5 : tensor<1x128xi32> loc(#loc7)
    %7 = tt.splat %arg0 : !tt.ptr<bf16> -> tensor<1x128x!tt.ptr<bf16>> loc(#loc8)
    %8 = tt.addptr %7, %6 : tensor<1x128x!tt.ptr<bf16>>, tensor<1x128xi32> loc(#loc8)
    %9 = tt.load %8 : tensor<1x128x!tt.ptr<bf16>> loc(#loc9)
    %10 = arith.extf %9 : tensor<1x128xbf16> to tensor<1x128xf32> loc(#loc10)
    %11 = arith.muli %3, %c128_i32 : i32 loc(#loc11)
    %12 = tt.splat %11 : i32 -> tensor<1x128xi32> loc(#loc12)
    %13 = arith.addi %2, %12 : tensor<1x128xi32> loc(#loc12)
    %14 = tt.splat %arg1 : !tt.ptr<bf16> -> tensor<1x128x!tt.ptr<bf16>> loc(#loc13)
    %15 = tt.addptr %14, %13 : tensor<1x128x!tt.ptr<bf16>>, tensor<1x128xi32> loc(#loc13)
    %16 = tt.load %15 evictionPolicy = evict_last : tensor<1x128x!tt.ptr<bf16>> loc(#loc14)
    %17 = arith.extf %16 : tensor<1x128xbf16> to tensor<1x128xf32> loc(#loc15)
    %18 = arith.addf %10, %17 : tensor<1x128xf32> loc(#loc16)
    %19 = arith.mulf %18, %18 : tensor<1x128xf32> loc(#loc17)
    %20 = "tt.reduce"(%19) <{axis = 1 : i32}> ({
    ^bb0(%arg5: f32 loc(unknown), %arg6: f32 loc(unknown)):
      %24 = arith.addf %arg5, %arg6 : f32 loc(#loc27)
      tt.reduce.return %24 : f32 loc(#loc25)
    }) : (tensor<1x128xf32>) -> tensor<1xf32> loc(#loc25)
    %21 = tt.expand_dims %20 {axis = 1 : i32} : tensor<1xf32> -> tensor<1x1xf32> loc(#loc21)
    %22 = tt.addptr %arg2, %0 : !tt.ptr<f32>, i32 loc(#loc22)
    %23 = tt.splat %22 : !tt.ptr<f32> -> tensor<1x1x!tt.ptr<f32>> loc(#loc22)
    tt.store %23, %21 : tensor<1x1x!tt.ptr<f32>> loc(#loc23)
    tt.return loc(#loc24)
  } loc(#loc)
} loc(#loc)
#loc2 = loc("/opt/inductor_cache/6e/c6enlnrynjsiytpvfrwupchvhqieecw255lhus6xgldihqvlgtit.py":22:28)
#loc3 = loc("/opt/inductor_cache/6e/c6enlnrynjsiytpvfrwupchvhqieecw255lhus6xgldihqvlgtit.py":25:26)
#loc4 = loc("/opt/inductor_cache/6e/c6enlnrynjsiytpvfrwupchvhqieecw255lhus6xgldihqvlgtit.py":25:34)
#loc5 = loc("/opt/inductor_cache/6e/c6enlnrynjsiytpvfrwupchvhqieecw255lhus6xgldihqvlgtit.py":30:18)
#loc6 = loc("/opt/inductor_cache/6e/c6enlnrynjsiytpvfrwupchvhqieecw255lhus6xgldihqvlgtit.py":31:40)
#loc7 = loc("/opt/inductor_cache/6e/c6enlnrynjsiytpvfrwupchvhqieecw255lhus6xgldihqvlgtit.py":31:36)
#loc8 = loc("/opt/inductor_cache/6e/c6enlnrynjsiytpvfrwupchvhqieecw255lhus6xgldihqvlgtit.py":31:30)
#loc9 = loc("/opt/inductor_cache/6e/c6enlnrynjsiytpvfrwupchvhqieecw255lhus6xgldihqvlgtit.py":31:46)
#loc10 = loc("/opt/inductor_cache/6e/c6enlnrynjsiytpvfrwupchvhqieecw255lhus6xgldihqvlgtit.py":31:55)
#loc11 = loc("/opt/inductor_cache/6e/c6enlnrynjsiytpvfrwupchvhqieecw255lhus6xgldihqvlgtit.py":32:40)
#loc12 = loc("/opt/inductor_cache/6e/c6enlnrynjsiytpvfrwupchvhqieecw255lhus6xgldihqvlgtit.py":32:36)
#loc13 = loc("/opt/inductor_cache/6e/c6enlnrynjsiytpvfrwupchvhqieecw255lhus6xgldihqvlgtit.py":32:30)
#loc14 = loc("/opt/inductor_cache/6e/c6enlnrynjsiytpvfrwupchvhqieecw255lhus6xgldihqvlgtit.py":32:46)
#loc15 = loc("/opt/inductor_cache/6e/c6enlnrynjsiytpvfrwupchvhqieecw255lhus6xgldihqvlgtit.py":32:85)
#loc16 = loc("/opt/inductor_cache/6e/c6enlnrynjsiytpvfrwupchvhqieecw255lhus6xgldihqvlgtit.py":33:18)
#loc17 = loc("/opt/inductor_cache/6e/c6enlnrynjsiytpvfrwupchvhqieecw255lhus6xgldihqvlgtit.py":34:18)
#loc18 = loc("/usr/local/lib/python3.10/site-packages/triton/language/standard.py":267:36)
#loc19 = loc("/opt/inductor_cache/6e/c6enlnrynjsiytpvfrwupchvhqieecw255lhus6xgldihqvlgtit.py":37:24)
#loc20 = loc("/usr/local/lib/python3.10/site-packages/triton/language/standard.py":256:15)
#loc21 = loc("/opt/inductor_cache/6e/c6enlnrynjsiytpvfrwupchvhqieecw255lhus6xgldihqvlgtit.py":37:27)
#loc22 = loc("/opt/inductor_cache/6e/c6enlnrynjsiytpvfrwupchvhqieecw255lhus6xgldihqvlgtit.py":38:25)
#loc23 = loc("/opt/inductor_cache/6e/c6enlnrynjsiytpvfrwupchvhqieecw255lhus6xgldihqvlgtit.py":38:36)
#loc24 = loc("/opt/inductor_cache/6e/c6enlnrynjsiytpvfrwupchvhqieecw255lhus6xgldihqvlgtit.py":38:4)
#loc25 = loc(callsite(#loc18 at #loc19))
#loc26 = loc(callsite(#loc20 at #loc18))
#loc27 = loc(callsite(#loc26 at #loc19))
