#loc = loc("/opt/inductor_cache/6e/c6enlnrynjsiytpvfrwupchvhqieecw255lhus6xgldihqvlgtit.py":18:0)
#loc1 = loc(unknown)
module {
  tt.func public @triton_(%arg0: !tt.ptr<bf16> {tt.divisibility = 16 : i32} loc("/opt/inductor_cache/6e/c6enlnrynjsiytpvfrwupchvhqieecw255lhus6xgldihqvlgtit.py":18:0), %arg1: !tt.ptr<bf16> {tt.divisibility = 16 : i32} loc("/opt/inductor_cache/6e/c6enlnrynjsiytpvfrwupchvhqieecw255lhus6xgldihqvlgtit.py":18:0), %arg2: !tt.ptr<f32> {tt.divisibility = 16 : i32} loc("/opt/inductor_cache/6e/c6enlnrynjsiytpvfrwupchvhqieecw255lhus6xgldihqvlgtit.py":18:0), %arg3: i32 {tt.divisibility = 16 : i32} loc("/opt/inductor_cache/6e/c6enlnrynjsiytpvfrwupchvhqieecw255lhus6xgldihqvlgtit.py":18:0), %arg4: i32 {tt.divisibility = 16 : i32} loc("/opt/inductor_cache/6e/c6enlnrynjsiytpvfrwupchvhqieecw255lhus6xgldihqvlgtit.py":18:0)) attributes {noinline = false} {
    %cst = arith.constant dense<128> : tensor<8x1xi32> loc(#loc1)
    %cst_0 = arith.constant dense<24> : tensor<8x1xi32> loc(#loc1)
    %c8_i32 = arith.constant 8 : i32 loc(#loc1)
    %0 = tt.get_program_id x : i32 loc(#loc2)
    %1 = arith.muli %0, %c8_i32 : i32 loc(#loc3)
    %2 = tt.make_range {end = 8 : i32, start = 0 : i32} : tensor<8xi32> loc(#loc4)
    %3 = tt.expand_dims %2 {axis = 1 : i32} : tensor<8xi32> -> tensor<8x1xi32> loc(#loc5)
    %4 = tt.splat %1 : i32 -> tensor<8x1xi32> loc(#loc6)
    %5 = arith.addi %4, %3 : tensor<8x1xi32> loc(#loc6)
    %6 = tt.make_range {end = 128 : i32, start = 0 : i32} : tensor<128xi32> loc(#loc7)
    %7 = tt.expand_dims %6 {axis = 0 : i32} : tensor<128xi32> -> tensor<1x128xi32> loc(#loc8)
    %8 = arith.remsi %5, %cst_0 : tensor<8x1xi32> loc(#loc9)
    %9 = arith.muli %5, %cst : tensor<8x1xi32> loc(#loc10)
    %10 = tt.broadcast %7 : tensor<1x128xi32> -> tensor<8x128xi32> loc(#loc11)
    %11 = tt.broadcast %9 : tensor<8x1xi32> -> tensor<8x128xi32> loc(#loc11)
    %12 = arith.addi %10, %11 : tensor<8x128xi32> loc(#loc11)
    %13 = tt.splat %arg0 : !tt.ptr<bf16> -> tensor<8x128x!tt.ptr<bf16>> loc(#loc12)
    %14 = tt.addptr %13, %12 : tensor<8x128x!tt.ptr<bf16>>, tensor<8x128xi32> loc(#loc12)
    %15 = tt.load %14 : tensor<8x128x!tt.ptr<bf16>> loc(#loc13)
    %16 = arith.extf %15 : tensor<8x128xbf16> to tensor<8x128xf32> loc(#loc14)
    %17 = arith.muli %8, %cst : tensor<8x1xi32> loc(#loc15)
    %18 = tt.broadcast %17 : tensor<8x1xi32> -> tensor<8x128xi32> loc(#loc16)
    %19 = arith.addi %10, %18 : tensor<8x128xi32> loc(#loc16)
    %20 = tt.splat %arg1 : !tt.ptr<bf16> -> tensor<8x128x!tt.ptr<bf16>> loc(#loc17)
    %21 = tt.addptr %20, %19 : tensor<8x128x!tt.ptr<bf16>>, tensor<8x128xi32> loc(#loc17)
    %22 = tt.load %21 evictionPolicy = evict_last : tensor<8x128x!tt.ptr<bf16>> loc(#loc18)
    %23 = arith.extf %22 : tensor<8x128xbf16> to tensor<8x128xf32> loc(#loc19)
    %24 = arith.addf %16, %23 : tensor<8x128xf32> loc(#loc20)
    %25 = arith.mulf %24, %24 : tensor<8x128xf32> loc(#loc21)
    %26 = "tt.reduce"(%25) <{axis = 1 : i32}> ({
    ^bb0(%arg5: f32 loc(unknown), %arg6: f32 loc(unknown)):
      %30 = arith.addf %arg5, %arg6 : f32 loc(#loc31)
      tt.reduce.return %30 : f32 loc(#loc29)
    }) : (tensor<8x128xf32>) -> tensor<8xf32> loc(#loc29)
    %27 = tt.expand_dims %26 {axis = 1 : i32} : tensor<8xf32> -> tensor<8x1xf32> loc(#loc25)
    %28 = tt.splat %arg2 : !tt.ptr<f32> -> tensor<8x1x!tt.ptr<f32>> loc(#loc26)
    %29 = tt.addptr %28, %5 : tensor<8x1x!tt.ptr<f32>>, tensor<8x1xi32> loc(#loc26)
    tt.store %29, %27 : tensor<8x1x!tt.ptr<f32>> loc(#loc27)
    tt.return loc(#loc28)
  } loc(#loc)
} loc(#loc)
#loc2 = loc("/opt/inductor_cache/6e/c6enlnrynjsiytpvfrwupchvhqieecw255lhus6xgldihqvlgtit.py":22:28)
#loc3 = loc("/opt/inductor_cache/6e/c6enlnrynjsiytpvfrwupchvhqieecw255lhus6xgldihqvlgtit.py":22:33)
#loc4 = loc("/opt/inductor_cache/6e/c6enlnrynjsiytpvfrwupchvhqieecw255lhus6xgldihqvlgtit.py":23:36)
#loc5 = loc("/opt/inductor_cache/6e/c6enlnrynjsiytpvfrwupchvhqieecw255lhus6xgldihqvlgtit.py":23:44)
#loc6 = loc("/opt/inductor_cache/6e/c6enlnrynjsiytpvfrwupchvhqieecw255lhus6xgldihqvlgtit.py":23:23)
#loc7 = loc("/opt/inductor_cache/6e/c6enlnrynjsiytpvfrwupchvhqieecw255lhus6xgldihqvlgtit.py":25:26)
#loc8 = loc("/opt/inductor_cache/6e/c6enlnrynjsiytpvfrwupchvhqieecw255lhus6xgldihqvlgtit.py":25:34)
#loc9 = loc("/opt/inductor_cache/6e/c6enlnrynjsiytpvfrwupchvhqieecw255lhus6xgldihqvlgtit.py":30:18)
#loc10 = loc("/opt/inductor_cache/6e/c6enlnrynjsiytpvfrwupchvhqieecw255lhus6xgldihqvlgtit.py":31:40)
#loc11 = loc("/opt/inductor_cache/6e/c6enlnrynjsiytpvfrwupchvhqieecw255lhus6xgldihqvlgtit.py":31:36)
#loc12 = loc("/opt/inductor_cache/6e/c6enlnrynjsiytpvfrwupchvhqieecw255lhus6xgldihqvlgtit.py":31:30)
#loc13 = loc("/opt/inductor_cache/6e/c6enlnrynjsiytpvfrwupchvhqieecw255lhus6xgldihqvlgtit.py":31:46)
#loc14 = loc("/opt/inductor_cache/6e/c6enlnrynjsiytpvfrwupchvhqieecw255lhus6xgldihqvlgtit.py":31:55)
#loc15 = loc("/opt/inductor_cache/6e/c6enlnrynjsiytpvfrwupchvhqieecw255lhus6xgldihqvlgtit.py":32:40)
#loc16 = loc("/opt/inductor_cache/6e/c6enlnrynjsiytpvfrwupchvhqieecw255lhus6xgldihqvlgtit.py":32:36)
#loc17 = loc("/opt/inductor_cache/6e/c6enlnrynjsiytpvfrwupchvhqieecw255lhus6xgldihqvlgtit.py":32:30)
#loc18 = loc("/opt/inductor_cache/6e/c6enlnrynjsiytpvfrwupchvhqieecw255lhus6xgldihqvlgtit.py":32:46)
#loc19 = loc("/opt/inductor_cache/6e/c6enlnrynjsiytpvfrwupchvhqieecw255lhus6xgldihqvlgtit.py":32:85)
#loc20 = loc("/opt/inductor_cache/6e/c6enlnrynjsiytpvfrwupchvhqieecw255lhus6xgldihqvlgtit.py":33:18)
#loc21 = loc("/opt/inductor_cache/6e/c6enlnrynjsiytpvfrwupchvhqieecw255lhus6xgldihqvlgtit.py":34:18)
#loc22 = loc("/usr/local/lib/python3.10/site-packages/triton/language/standard.py":267:36)
#loc23 = loc("/opt/inductor_cache/6e/c6enlnrynjsiytpvfrwupchvhqieecw255lhus6xgldihqvlgtit.py":37:24)
#loc24 = loc("/usr/local/lib/python3.10/site-packages/triton/language/standard.py":256:15)
#loc25 = loc("/opt/inductor_cache/6e/c6enlnrynjsiytpvfrwupchvhqieecw255lhus6xgldihqvlgtit.py":37:27)
#loc26 = loc("/opt/inductor_cache/6e/c6enlnrynjsiytpvfrwupchvhqieecw255lhus6xgldihqvlgtit.py":38:25)
#loc27 = loc("/opt/inductor_cache/6e/c6enlnrynjsiytpvfrwupchvhqieecw255lhus6xgldihqvlgtit.py":38:36)
#loc28 = loc("/opt/inductor_cache/6e/c6enlnrynjsiytpvfrwupchvhqieecw255lhus6xgldihqvlgtit.py":38:4)
#loc29 = loc(callsite(#loc22 at #loc23))
#loc30 = loc(callsite(#loc24 at #loc22))
#loc31 = loc(callsite(#loc30 at #loc23))
