#loc = loc("/opt/inductor_cache/vm/cvmzgneyeh3bc2ytevm76iswkrgw6vqhg2qch2kt2wx3xshxwq3f.py":18:0)
module {
  tt.func public @triton_(%arg0: !tt.ptr<bf16> {tt.divisibility = 16 : i32} loc("/opt/inductor_cache/vm/cvmzgneyeh3bc2ytevm76iswkrgw6vqhg2qch2kt2wx3xshxwq3f.py":18:0), %arg1: !tt.ptr<bf16> {tt.divisibility = 16 : i32} loc("/opt/inductor_cache/vm/cvmzgneyeh3bc2ytevm76iswkrgw6vqhg2qch2kt2wx3xshxwq3f.py":18:0), %arg2: !tt.ptr<bf16> {tt.divisibility = 16 : i32} loc("/opt/inductor_cache/vm/cvmzgneyeh3bc2ytevm76iswkrgw6vqhg2qch2kt2wx3xshxwq3f.py":18:0), %arg3: !tt.ptr<bf16> {tt.divisibility = 16 : i32} loc("/opt/inductor_cache/vm/cvmzgneyeh3bc2ytevm76iswkrgw6vqhg2qch2kt2wx3xshxwq3f.py":18:0), %arg4: !tt.ptr<bf16> {tt.divisibility = 16 : i32} loc("/opt/inductor_cache/vm/cvmzgneyeh3bc2ytevm76iswkrgw6vqhg2qch2kt2wx3xshxwq3f.py":18:0), %arg5: i32 {tt.divisibility = 16 : i32} loc("/opt/inductor_cache/vm/cvmzgneyeh3bc2ytevm76iswkrgw6vqhg2qch2kt2wx3xshxwq3f.py":18:0)) attributes {noinline = false} {
    %cst = arith.constant dense<6144> : tensor<512xi32> loc(#loc1)
    %cst_0 = arith.constant dense<3072> : tensor<512xi32> loc(#loc1)
    %c512_i32 = arith.constant 512 : i32 loc(#loc1)
    %0 = tt.get_program_id x : i32 loc(#loc2)
    %1 = arith.muli %0, %c512_i32 : i32 loc(#loc3)
    %2 = tt.make_range {end = 512 : i32, start = 0 : i32} : tensor<512xi32> loc(#loc4)
    %3 = tt.splat %1 : i32 -> tensor<512xi32> loc(#loc5)
    %4 = arith.addi %3, %2 : tensor<512xi32> loc(#loc5)
    %5 = tt.splat %arg5 : i32 -> tensor<512xi32> loc(#loc6)
    %6 = arith.cmpi slt, %4, %5 : tensor<512xi32> loc(#loc6)
    %7 = arith.remsi %4, %cst_0 : tensor<512xi32> loc(#loc7)
    %8 = tt.splat %arg1 : !tt.ptr<bf16> -> tensor<512x!tt.ptr<bf16>> loc(#loc8)
    %9 = tt.addptr %8, %4 : tensor<512x!tt.ptr<bf16>>, tensor<512xi32> loc(#loc8)
    %10 = tt.load %9, %6 : tensor<512x!tt.ptr<bf16>> loc(#loc9)
    %11 = arith.extf %10 : tensor<512xbf16> to tensor<512xf32> loc(#loc10)
    %12 = arith.addi %7, %cst : tensor<512xi32> loc(#loc11)
    %13 = tt.splat %arg2 : !tt.ptr<bf16> -> tensor<512x!tt.ptr<bf16>> loc(#loc12)
    %14 = tt.addptr %13, %12 : tensor<512x!tt.ptr<bf16>>, tensor<512xi32> loc(#loc12)
    %15 = tt.load %14, %6 evictionPolicy = evict_last : tensor<512x!tt.ptr<bf16>> loc(#loc13)
    %16 = arith.extf %15 : tensor<512xbf16> to tensor<512xf32> loc(#loc14)
    %17 = tt.splat %arg3 : !tt.ptr<bf16> -> tensor<512x!tt.ptr<bf16>> loc(#loc15)
    %18 = tt.addptr %17, %12 : tensor<512x!tt.ptr<bf16>>, tensor<512xi32> loc(#loc15)
    %19 = tt.load %18, %6 evictionPolicy = evict_last : tensor<512x!tt.ptr<bf16>> loc(#loc16)
    %20 = arith.extf %19 : tensor<512xbf16> to tensor<512xf32> loc(#loc17)
    %21 = tt.splat %arg0 : !tt.ptr<bf16> -> tensor<512x!tt.ptr<bf16>> loc(#loc18)
    %22 = tt.addptr %21, %4 : tensor<512x!tt.ptr<bf16>>, tensor<512xi32> loc(#loc18)
    %23 = tt.load %22, %6 : tensor<512x!tt.ptr<bf16>> loc(#loc19)
    %24 = arith.extf %23 : tensor<512xbf16> to tensor<512xf32> loc(#loc20)
    %25 = tt.splat %arg4 : !tt.ptr<bf16> -> tensor<512x!tt.ptr<bf16>> loc(#loc21)
    %26 = tt.addptr %25, %7 : tensor<512x!tt.ptr<bf16>>, tensor<512xi32> loc(#loc21)
    %27 = tt.load %26, %6 evictionPolicy = evict_last : tensor<512x!tt.ptr<bf16>> loc(#loc22)
    %28 = arith.extf %27 : tensor<512xbf16> to tensor<512xf32> loc(#loc23)
    %29 = arith.addf %16, %20 : tensor<512xf32> loc(#loc24)
    %30 = arith.addf %24, %28 : tensor<512xf32> loc(#loc25)
    %31 = arith.mulf %29, %30 : tensor<512xf32> loc(#loc26)
    %32 = arith.addf %11, %31 : tensor<512xf32> loc(#loc27)
    %33 = arith.truncf %32 : tensor<512xf32> to tensor<512xbf16> loc(#loc28)
    tt.store %22, %33, %6 : tensor<512x!tt.ptr<bf16>> loc(#loc28)
    tt.return loc(#loc29)
  } loc(#loc)
} loc(#loc)
#loc1 = loc(unknown)
#loc2 = loc("/opt/inductor_cache/vm/cvmzgneyeh3bc2ytevm76iswkrgw6vqhg2qch2kt2wx3xshxwq3f.py":19:28)
#loc3 = loc("/opt/inductor_cache/vm/cvmzgneyeh3bc2ytevm76iswkrgw6vqhg2qch2kt2wx3xshxwq3f.py":19:33)
#loc4 = loc("/opt/inductor_cache/vm/cvmzgneyeh3bc2ytevm76iswkrgw6vqhg2qch2kt2wx3xshxwq3f.py":20:36)
#loc5 = loc("/opt/inductor_cache/vm/cvmzgneyeh3bc2ytevm76iswkrgw6vqhg2qch2kt2wx3xshxwq3f.py":20:23)
#loc6 = loc("/opt/inductor_cache/vm/cvmzgneyeh3bc2ytevm76iswkrgw6vqhg2qch2kt2wx3xshxwq3f.py":21:21)
#loc7 = loc("/opt/inductor_cache/vm/cvmzgneyeh3bc2ytevm76iswkrgw6vqhg2qch2kt2wx3xshxwq3f.py":23:18)
#loc8 = loc("/opt/inductor_cache/vm/cvmzgneyeh3bc2ytevm76iswkrgw6vqhg2qch2kt2wx3xshxwq3f.py":24:30)
#loc9 = loc("/opt/inductor_cache/vm/cvmzgneyeh3bc2ytevm76iswkrgw6vqhg2qch2kt2wx3xshxwq3f.py":24:35)
#loc10 = loc("/opt/inductor_cache/vm/cvmzgneyeh3bc2ytevm76iswkrgw6vqhg2qch2kt2wx3xshxwq3f.py":24:45)
#loc11 = loc("/opt/inductor_cache/vm/cvmzgneyeh3bc2ytevm76iswkrgw6vqhg2qch2kt2wx3xshxwq3f.py":25:37)
#loc12 = loc("/opt/inductor_cache/vm/cvmzgneyeh3bc2ytevm76iswkrgw6vqhg2qch2kt2wx3xshxwq3f.py":25:30)
#loc13 = loc("/opt/inductor_cache/vm/cvmzgneyeh3bc2ytevm76iswkrgw6vqhg2qch2kt2wx3xshxwq3f.py":25:42)
#loc14 = loc("/opt/inductor_cache/vm/cvmzgneyeh3bc2ytevm76iswkrgw6vqhg2qch2kt2wx3xshxwq3f.py":25:82)
#loc15 = loc("/opt/inductor_cache/vm/cvmzgneyeh3bc2ytevm76iswkrgw6vqhg2qch2kt2wx3xshxwq3f.py":26:30)
#loc16 = loc("/opt/inductor_cache/vm/cvmzgneyeh3bc2ytevm76iswkrgw6vqhg2qch2kt2wx3xshxwq3f.py":26:42)
#loc17 = loc("/opt/inductor_cache/vm/cvmzgneyeh3bc2ytevm76iswkrgw6vqhg2qch2kt2wx3xshxwq3f.py":26:82)
#loc18 = loc("/opt/inductor_cache/vm/cvmzgneyeh3bc2ytevm76iswkrgw6vqhg2qch2kt2wx3xshxwq3f.py":27:34)
#loc19 = loc("/opt/inductor_cache/vm/cvmzgneyeh3bc2ytevm76iswkrgw6vqhg2qch2kt2wx3xshxwq3f.py":27:39)
#loc20 = loc("/opt/inductor_cache/vm/cvmzgneyeh3bc2ytevm76iswkrgw6vqhg2qch2kt2wx3xshxwq3f.py":27:49)
#loc21 = loc("/opt/inductor_cache/vm/cvmzgneyeh3bc2ytevm76iswkrgw6vqhg2qch2kt2wx3xshxwq3f.py":28:30)
#loc22 = loc("/opt/inductor_cache/vm/cvmzgneyeh3bc2ytevm76iswkrgw6vqhg2qch2kt2wx3xshxwq3f.py":28:35)
#loc23 = loc("/opt/inductor_cache/vm/cvmzgneyeh3bc2ytevm76iswkrgw6vqhg2qch2kt2wx3xshxwq3f.py":28:75)
#loc24 = loc("/opt/inductor_cache/vm/cvmzgneyeh3bc2ytevm76iswkrgw6vqhg2qch2kt2wx3xshxwq3f.py":29:18)
#loc25 = loc("/opt/inductor_cache/vm/cvmzgneyeh3bc2ytevm76iswkrgw6vqhg2qch2kt2wx3xshxwq3f.py":30:18)
#loc26 = loc("/opt/inductor_cache/vm/cvmzgneyeh3bc2ytevm76iswkrgw6vqhg2qch2kt2wx3xshxwq3f.py":31:18)
#loc27 = loc("/opt/inductor_cache/vm/cvmzgneyeh3bc2ytevm76iswkrgw6vqhg2qch2kt2wx3xshxwq3f.py":32:18)
#loc28 = loc("/opt/inductor_cache/vm/cvmzgneyeh3bc2ytevm76iswkrgw6vqhg2qch2kt2wx3xshxwq3f.py":33:39)
#loc29 = loc("/opt/inductor_cache/vm/cvmzgneyeh3bc2ytevm76iswkrgw6vqhg2qch2kt2wx3xshxwq3f.py":33:4)
