#loc = loc("/opt/inductor_cache/lz/clzlidfkb7q6z5g4kmago5h7seyetlxr35p7katfd3nvexgi246o.py":18:0)
module {
  tt.func public @triton_(%arg0: !tt.ptr<bf16> {tt.divisibility = 16 : i32} loc("/opt/inductor_cache/lz/clzlidfkb7q6z5g4kmago5h7seyetlxr35p7katfd3nvexgi246o.py":18:0), %arg1: !tt.ptr<bf16> {tt.divisibility = 16 : i32} loc("/opt/inductor_cache/lz/clzlidfkb7q6z5g4kmago5h7seyetlxr35p7katfd3nvexgi246o.py":18:0), %arg2: !tt.ptr<bf16> {tt.divisibility = 16 : i32} loc("/opt/inductor_cache/lz/clzlidfkb7q6z5g4kmago5h7seyetlxr35p7katfd3nvexgi246o.py":18:0), %arg3: !tt.ptr<bf16> {tt.divisibility = 16 : i32} loc("/opt/inductor_cache/lz/clzlidfkb7q6z5g4kmago5h7seyetlxr35p7katfd3nvexgi246o.py":18:0), %arg4: !tt.ptr<bf16> {tt.divisibility = 16 : i32} loc("/opt/inductor_cache/lz/clzlidfkb7q6z5g4kmago5h7seyetlxr35p7katfd3nvexgi246o.py":18:0), %arg5: !tt.ptr<bf16> {tt.divisibility = 16 : i32} loc("/opt/inductor_cache/lz/clzlidfkb7q6z5g4kmago5h7seyetlxr35p7katfd3nvexgi246o.py":18:0), %arg6: !tt.ptr<bf16> {tt.divisibility = 16 : i32} loc("/opt/inductor_cache/lz/clzlidfkb7q6z5g4kmago5h7seyetlxr35p7katfd3nvexgi246o.py":18:0), %arg7: !tt.ptr<bf16> {tt.divisibility = 16 : i32} loc("/opt/inductor_cache/lz/clzlidfkb7q6z5g4kmago5h7seyetlxr35p7katfd3nvexgi246o.py":18:0), %arg8: !tt.ptr<bf16> {tt.divisibility = 16 : i32} loc("/opt/inductor_cache/lz/clzlidfkb7q6z5g4kmago5h7seyetlxr35p7katfd3nvexgi246o.py":18:0), %arg9: !tt.ptr<bf16> {tt.divisibility = 16 : i32} loc("/opt/inductor_cache/lz/clzlidfkb7q6z5g4kmago5h7seyetlxr35p7katfd3nvexgi246o.py":18:0), %arg10: !tt.ptr<bf16> {tt.divisibility = 16 : i32} loc("/opt/inductor_cache/lz/clzlidfkb7q6z5g4kmago5h7seyetlxr35p7katfd3nvexgi246o.py":18:0), %arg11: !tt.ptr<bf16> {tt.divisibility = 16 : i32} loc("/opt/inductor_cache/lz/clzlidfkb7q6z5g4kmago5h7seyetlxr35p7katfd3nvexgi246o.py":18:0), %arg12: !tt.ptr<bf16> {tt.divisibility = 16 : i32} loc("/opt/inductor_cache/lz/clzlidfkb7q6z5g4kmago5h7seyetlxr35p7katfd3nvexgi246o.py":18:0), %arg13: !tt.ptr<bf16> {tt.divisibility = 16 : i32} loc("/opt/inductor_cache/lz/clzlidfkb7q6z5g4kmago5h7seyetlxr35p7katfd3nvexgi246o.py":18:0), %arg14: !tt.ptr<bf16> {tt.divisibility = 16 : i32} loc("/opt/inductor_cache/lz/clzlidfkb7q6z5g4kmago5h7seyetlxr35p7katfd3nvexgi246o.py":18:0), %arg15: !tt.ptr<bf16> {tt.divisibility = 16 : i32} loc("/opt/inductor_cache/lz/clzlidfkb7q6z5g4kmago5h7seyetlxr35p7katfd3nvexgi246o.py":18:0), %arg16: !tt.ptr<bf16> {tt.divisibility = 16 : i32} loc("/opt/inductor_cache/lz/clzlidfkb7q6z5g4kmago5h7seyetlxr35p7katfd3nvexgi246o.py":18:0), %arg17: !tt.ptr<bf16> {tt.divisibility = 16 : i32} loc("/opt/inductor_cache/lz/clzlidfkb7q6z5g4kmago5h7seyetlxr35p7katfd3nvexgi246o.py":18:0), %arg18: !tt.ptr<bf16> {tt.divisibility = 16 : i32} loc("/opt/inductor_cache/lz/clzlidfkb7q6z5g4kmago5h7seyetlxr35p7katfd3nvexgi246o.py":18:0), %arg19: !tt.ptr<bf16> {tt.divisibility = 16 : i32} loc("/opt/inductor_cache/lz/clzlidfkb7q6z5g4kmago5h7seyetlxr35p7katfd3nvexgi246o.py":18:0), %arg20: !tt.ptr<bf16> {tt.divisibility = 16 : i32} loc("/opt/inductor_cache/lz/clzlidfkb7q6z5g4kmago5h7seyetlxr35p7katfd3nvexgi246o.py":18:0), %arg21: !tt.ptr<bf16> {tt.divisibility = 16 : i32} loc("/opt/inductor_cache/lz/clzlidfkb7q6z5g4kmago5h7seyetlxr35p7katfd3nvexgi246o.py":18:0), %arg22: !tt.ptr<bf16> {tt.divisibility = 16 : i32} loc("/opt/inductor_cache/lz/clzlidfkb7q6z5g4kmago5h7seyetlxr35p7katfd3nvexgi246o.py":18:0), %arg23: !tt.ptr<bf16> {tt.divisibility = 16 : i32} loc("/opt/inductor_cache/lz/clzlidfkb7q6z5g4kmago5h7seyetlxr35p7katfd3nvexgi246o.py":18:0), %arg24: !tt.ptr<bf16> {tt.divisibility = 16 : i32} loc("/opt/inductor_cache/lz/clzlidfkb7q6z5g4kmago5h7seyetlxr35p7katfd3nvexgi246o.py":18:0), %arg25: !tt.ptr<bf16> {tt.divisibility = 16 : i32} loc("/opt/inductor_cache/lz/clzlidfkb7q6z5g4kmago5h7seyetlxr35p7katfd3nvexgi246o.py":18:0), %arg26: !tt.ptr<bf16> {tt.divisibility = 16 : i32} loc("/opt/inductor_cache/lz/clzlidfkb7q6z5g4kmago5h7seyetlxr35p7katfd3nvexgi246o.py":18:0), %arg27: !tt.ptr<bf16> {tt.divisibility = 16 : i32} loc("/opt/inductor_cache/lz/clzlidfkb7q6z5g4kmago5h7seyetlxr35p7katfd3nvexgi246o.py":18:0), %arg28: !tt.ptr<bf16> {tt.divisibility = 16 : i32} loc("/opt/inductor_cache/lz/clzlidfkb7q6z5g4kmago5h7seyetlxr35p7katfd3nvexgi246o.py":18:0), %arg29: !tt.ptr<bf16> {tt.divisibility = 16 : i32} loc("/opt/inductor_cache/lz/clzlidfkb7q6z5g4kmago5h7seyetlxr35p7katfd3nvexgi246o.py":18:0), %arg30: !tt.ptr<bf16> {tt.divisibility = 16 : i32} loc("/opt/inductor_cache/lz/clzlidfkb7q6z5g4kmago5h7seyetlxr35p7katfd3nvexgi246o.py":18:0), %arg31: !tt.ptr<bf16> {tt.divisibility = 16 : i32} loc("/opt/inductor_cache/lz/clzlidfkb7q6z5g4kmago5h7seyetlxr35p7katfd3nvexgi246o.py":18:0), %arg32: !tt.ptr<bf16> {tt.divisibility = 16 : i32} loc("/opt/inductor_cache/lz/clzlidfkb7q6z5g4kmago5h7seyetlxr35p7katfd3nvexgi246o.py":18:0), %arg33: !tt.ptr<bf16> {tt.divisibility = 16 : i32} loc("/opt/inductor_cache/lz/clzlidfkb7q6z5g4kmago5h7seyetlxr35p7katfd3nvexgi246o.py":18:0), %arg34: !tt.ptr<bf16> {tt.divisibility = 16 : i32} loc("/opt/inductor_cache/lz/clzlidfkb7q6z5g4kmago5h7seyetlxr35p7katfd3nvexgi246o.py":18:0), %arg35: !tt.ptr<bf16> {tt.divisibility = 16 : i32} loc("/opt/inductor_cache/lz/clzlidfkb7q6z5g4kmago5h7seyetlxr35p7katfd3nvexgi246o.py":18:0), %arg36: !tt.ptr<bf16> {tt.divisibility = 16 : i32} loc("/opt/inductor_cache/lz/clzlidfkb7q6z5g4kmago5h7seyetlxr35p7katfd3nvexgi246o.py":18:0), %arg37: !tt.ptr<bf16> {tt.divisibility = 16 : i32} loc("/opt/inductor_cache/lz/clzlidfkb7q6z5g4kmago5h7seyetlxr35p7katfd3nvexgi246o.py":18:0), %arg38: !tt.ptr<bf16> {tt.divisibility = 16 : i32} loc("/opt/inductor_cache/lz/clzlidfkb7q6z5g4kmago5h7seyetlxr35p7katfd3nvexgi246o.py":18:0), %arg39: !tt.ptr<bf16> {tt.divisibility = 16 : i32} loc("/opt/inductor_cache/lz/clzlidfkb7q6z5g4kmago5h7seyetlxr35p7katfd3nvexgi246o.py":18:0), %arg40: !tt.ptr<bf16> {tt.divisibility = 16 : i32} loc("/opt/inductor_cache/lz/clzlidfkb7q6z5g4kmago5h7seyetlxr35p7katfd3nvexgi246o.py":18:0), %arg41: !tt.ptr<bf16> {tt.divisibility = 16 : i32} loc("/opt/inductor_cache/lz/clzlidfkb7q6z5g4kmago5h7seyetlxr35p7katfd3nvexgi246o.py":18:0), %arg42: !tt.ptr<bf16> {tt.divisibility = 16 : i32} loc("/opt/inductor_cache/lz/clzlidfkb7q6z5g4kmago5h7seyetlxr35p7katfd3nvexgi246o.py":18:0), %arg43: !tt.ptr<bf16> {tt.divisibility = 16 : i32} loc("/opt/inductor_cache/lz/clzlidfkb7q6z5g4kmago5h7seyetlxr35p7katfd3nvexgi246o.py":18:0), %arg44: !tt.ptr<bf16> {tt.divisibility = 16 : i32} loc("/opt/inductor_cache/lz/clzlidfkb7q6z5g4kmago5h7seyetlxr35p7katfd3nvexgi246o.py":18:0), %arg45: !tt.ptr<bf16> {tt.divisibility = 16 : i32} loc("/opt/inductor_cache/lz/clzlidfkb7q6z5g4kmago5h7seyetlxr35p7katfd3nvexgi246o.py":18:0), %arg46: !tt.ptr<bf16> {tt.divisibility = 16 : i32} loc("/opt/inductor_cache/lz/clzlidfkb7q6z5g4kmago5h7seyetlxr35p7katfd3nvexgi246o.py":18:0), %arg47: !tt.ptr<bf16> {tt.divisibility = 16 : i32} loc("/opt/inductor_cache/lz/clzlidfkb7q6z5g4kmago5h7seyetlxr35p7katfd3nvexgi246o.py":18:0), %arg48: !tt.ptr<bf16> {tt.divisibility = 16 : i32} loc("/opt/inductor_cache/lz/clzlidfkb7q6z5g4kmago5h7seyetlxr35p7katfd3nvexgi246o.py":18:0), %arg49: !tt.ptr<bf16> {tt.divisibility = 16 : i32} loc("/opt/inductor_cache/lz/clzlidfkb7q6z5g4kmago5h7seyetlxr35p7katfd3nvexgi246o.py":18:0), %arg50: !tt.ptr<bf16> {tt.divisibility = 16 : i32} loc("/opt/inductor_cache/lz/clzlidfkb7q6z5g4kmago5h7seyetlxr35p7katfd3nvexgi246o.py":18:0), %arg51: !tt.ptr<bf16> {tt.divisibility = 16 : i32} loc("/opt/inductor_cache/lz/clzlidfkb7q6z5g4kmago5h7seyetlxr35p7katfd3nvexgi246o.py":18:0), %arg52: !tt.ptr<bf16> {tt.divisibility = 16 : i32} loc("/opt/inductor_cache/lz/clzlidfkb7q6z5g4kmago5h7seyetlxr35p7katfd3nvexgi246o.py":18:0), %arg53: !tt.ptr<bf16> {tt.divisibility = 16 : i32} loc("/opt/inductor_cache/lz/clzlidfkb7q6z5g4kmago5h7seyetlxr35p7katfd3nvexgi246o.py":18:0), %arg54: !tt.ptr<bf16> {tt.divisibility = 16 : i32} loc("/opt/inductor_cache/lz/clzlidfkb7q6z5g4kmago5h7seyetlxr35p7katfd3nvexgi246o.py":18:0), %arg55: !tt.ptr<bf16> {tt.divisibility = 16 : i32} loc("/opt/inductor_cache/lz/clzlidfkb7q6z5g4kmago5h7seyetlxr35p7katfd3nvexgi246o.py":18:0), %arg56: !tt.ptr<bf16> {tt.divisibility = 16 : i32} loc("/opt/inductor_cache/lz/clzlidfkb7q6z5g4kmago5h7seyetlxr35p7katfd3nvexgi246o.py":18:0), %arg57: !tt.ptr<bf16> {tt.divisibility = 16 : i32} loc("/opt/inductor_cache/lz/clzlidfkb7q6z5g4kmago5h7seyetlxr35p7katfd3nvexgi246o.py":18:0), %arg58: !tt.ptr<bf16> {tt.divisibility = 16 : i32} loc("/opt/inductor_cache/lz/clzlidfkb7q6z5g4kmago5h7seyetlxr35p7katfd3nvexgi246o.py":18:0), %arg59: !tt.ptr<bf16> {tt.divisibility = 16 : i32} loc("/opt/inductor_cache/lz/clzlidfkb7q6z5g4kmago5h7seyetlxr35p7katfd3nvexgi246o.py":18:0), %arg60: !tt.ptr<bf16> {tt.divisibility = 16 : i32} loc("/opt/inductor_cache/lz/clzlidfkb7q6z5g4kmago5h7seyetlxr35p7katfd3nvexgi246o.py":18:0), %arg61: !tt.ptr<bf16> {tt.divisibility = 16 : i32} loc("/opt/inductor_cache/lz/clzlidfkb7q6z5g4kmago5h7seyetlxr35p7katfd3nvexgi246o.py":18:0), %arg62: !tt.ptr<bf16> {tt.divisibility = 16 : i32} loc("/opt/inductor_cache/lz/clzlidfkb7q6z5g4kmago5h7seyetlxr35p7katfd3nvexgi246o.py":18:0), %arg63: !tt.ptr<bf16> {tt.divisibility = 16 : i32} loc("/opt/inductor_cache/lz/clzlidfkb7q6z5g4kmago5h7seyetlxr35p7katfd3nvexgi246o.py":18:0), %arg64: !tt.ptr<bf16> {tt.divisibility = 16 : i32} loc("/opt/inductor_cache/lz/clzlidfkb7q6z5g4kmago5h7seyetlxr35p7katfd3nvexgi246o.py":18:0), %arg65: !tt.ptr<bf16> {tt.divisibility = 16 : i32} loc("/opt/inductor_cache/lz/clzlidfkb7q6z5g4kmago5h7seyetlxr35p7katfd3nvexgi246o.py":18:0), %arg66: !tt.ptr<bf16> {tt.divisibility = 16 : i32} loc("/opt/inductor_cache/lz/clzlidfkb7q6z5g4kmago5h7seyetlxr35p7katfd3nvexgi246o.py":18:0), %arg67: !tt.ptr<bf16> {tt.divisibility = 16 : i32} loc("/opt/inductor_cache/lz/clzlidfkb7q6z5g4kmago5h7seyetlxr35p7katfd3nvexgi246o.py":18:0), %arg68: !tt.ptr<bf16> {tt.divisibility = 16 : i32} loc("/opt/inductor_cache/lz/clzlidfkb7q6z5g4kmago5h7seyetlxr35p7katfd3nvexgi246o.py":18:0), %arg69: i32 {tt.divisibility = 16 : i32} loc("/opt/inductor_cache/lz/clzlidfkb7q6z5g4kmago5h7seyetlxr35p7katfd3nvexgi246o.py":18:0)) attributes {noinline = false} {
    %cst = arith.constant dense<0.000000e+00> : tensor<256xf32> loc(#loc1)
    %cst_0 = arith.constant dense<1.000000e+00> : tensor<256xf32> loc(#loc1)
    %cst_1 = arith.constant dense<3072> : tensor<256xi32> loc(#loc1)
    %c256_i32 = arith.constant 256 : i32 loc(#loc1)
    %0 = tt.get_program_id x : i32 loc(#loc2)
    %1 = arith.muli %0, %c256_i32 : i32 loc(#loc3)
    %2 = tt.make_range {end = 256 : i32, start = 0 : i32} : tensor<256xi32> loc(#loc4)
    %3 = tt.splat %1 : i32 -> tensor<256xi32> loc(#loc5)
    %4 = arith.addi %3, %2 : tensor<256xi32> loc(#loc5)
    %5 = arith.cmpi slt, %4, %cst_1 : tensor<256xi32> loc(#loc6)
    %6 = tt.splat %arg1 : !tt.ptr<bf16> -> tensor<256x!tt.ptr<bf16>> loc(#loc7)
    %7 = tt.addptr %6, %4 : tensor<256x!tt.ptr<bf16>>, tensor<256xi32> loc(#loc7)
    %8 = tt.load %7, %5 : tensor<256x!tt.ptr<bf16>> loc(#loc8)
    %9 = arith.extf %8 : tensor<256xbf16> to tensor<256xf32> loc(#loc9)
    %10 = tt.splat %arg2 : !tt.ptr<bf16> -> tensor<256x!tt.ptr<bf16>> loc(#loc10)
    %11 = tt.addptr %10, %4 : tensor<256x!tt.ptr<bf16>>, tensor<256xi32> loc(#loc10)
    %12 = tt.load %11, %5 : tensor<256x!tt.ptr<bf16>> loc(#loc11)
    %13 = arith.extf %12 : tensor<256xbf16> to tensor<256xf32> loc(#loc12)
    %14 = tt.splat %arg3 : !tt.ptr<bf16> -> tensor<256x!tt.ptr<bf16>> loc(#loc13)
    %15 = tt.addptr %14, %4 : tensor<256x!tt.ptr<bf16>>, tensor<256xi32> loc(#loc13)
    %16 = tt.load %15, %5 : tensor<256x!tt.ptr<bf16>> loc(#loc14)
    %17 = arith.extf %16 : tensor<256xbf16> to tensor<256xf32> loc(#loc15)
    %18 = tt.splat %arg4 : !tt.ptr<bf16> -> tensor<256x!tt.ptr<bf16>> loc(#loc16)
    %19 = tt.addptr %18, %4 : tensor<256x!tt.ptr<bf16>>, tensor<256xi32> loc(#loc16)
    %20 = tt.load %19, %5 : tensor<256x!tt.ptr<bf16>> loc(#loc17)
    %21 = arith.extf %20 : tensor<256xbf16> to tensor<256xf32> loc(#loc18)
    %22 = tt.splat %arg0 : !tt.ptr<bf16> -> tensor<256x!tt.ptr<bf16>> loc(#loc19)
    %23 = tt.addptr %22, %4 : tensor<256x!tt.ptr<bf16>>, tensor<256xi32> loc(#loc19)
    %24 = tt.load %23, %5 : tensor<256x!tt.ptr<bf16>> loc(#loc20)
    %25 = arith.extf %24 : tensor<256xbf16> to tensor<256xf32> loc(#loc21)
    %26 = tt.splat %arg5 : !tt.ptr<bf16> -> tensor<256x!tt.ptr<bf16>> loc(#loc22)
    %27 = tt.addptr %26, %4 : tensor<256x!tt.ptr<bf16>>, tensor<256xi32> loc(#loc22)
    %28 = tt.load %27, %5 : tensor<256x!tt.ptr<bf16>> loc(#loc23)
    %29 = arith.extf %28 : tensor<256xbf16> to tensor<256xf32> loc(#loc24)
    %30 = arith.addf %9, %13 : tensor<256xf32> loc(#loc25)
    %31 = arith.addf %17, %21 : tensor<256xf32> loc(#loc26)
    %32 = arith.addf %30, %31 : tensor<256xf32> loc(#loc27)
    %33 = arith.addf %25, %29 : tensor<256xf32> loc(#loc28)
    %34 = arith.addf %32, %33 : tensor<256xf32> loc(#loc29)
    %35 = arith.subf %cst, %34 : tensor<256xf32> loc(#loc164)
    %36 = math.exp %35 : tensor<256xf32> loc(#loc165)
    %37 = arith.addf %36, %cst_0 : tensor<256xf32> loc(#loc166)
    %38 = arith.divf %cst_0, %37 : tensor<256xf32> loc(#loc167)
    %39 = arith.mulf %34, %38 : tensor<256xf32> loc(#loc35)
    %40 = arith.truncf %34 : tensor<256xf32> to tensor<256xbf16> loc(#loc36)
    tt.store %23, %40, %5 : tensor<256x!tt.ptr<bf16>> loc(#loc36)
    %41 = tt.splat %arg6 : !tt.ptr<bf16> -> tensor<256x!tt.ptr<bf16>> loc(#loc37)
    %42 = tt.addptr %41, %4 : tensor<256x!tt.ptr<bf16>>, tensor<256xi32> loc(#loc37)
    %43 = arith.truncf %39 : tensor<256xf32> to tensor<256xbf16> loc(#loc38)
    tt.store %42, %43, %5 : tensor<256x!tt.ptr<bf16>> loc(#loc38)
    %44 = tt.splat %arg7 : !tt.ptr<bf16> -> tensor<256x!tt.ptr<bf16>> loc(#loc39)
    %45 = tt.addptr %44, %4 : tensor<256x!tt.ptr<bf16>>, tensor<256xi32> loc(#loc39)
    tt.store %45, %43, %5 : tensor<256x!tt.ptr<bf16>> loc(#loc40)
    %46 = tt.splat %arg8 : !tt.ptr<bf16> -> tensor<256x!tt.ptr<bf16>> loc(#loc41)
    %47 = tt.addptr %46, %4 : tensor<256x!tt.ptr<bf16>>, tensor<256xi32> loc(#loc41)
    tt.store %47, %43, %5 : tensor<256x!tt.ptr<bf16>> loc(#loc42)
    %48 = tt.splat %arg9 : !tt.ptr<bf16> -> tensor<256x!tt.ptr<bf16>> loc(#loc43)
    %49 = tt.addptr %48, %4 : tensor<256x!tt.ptr<bf16>>, tensor<256xi32> loc(#loc43)
    tt.store %49, %43, %5 : tensor<256x!tt.ptr<bf16>> loc(#loc44)
    %50 = tt.splat %arg10 : !tt.ptr<bf16> -> tensor<256x!tt.ptr<bf16>> loc(#loc45)
    %51 = tt.addptr %50, %4 : tensor<256x!tt.ptr<bf16>>, tensor<256xi32> loc(#loc45)
    tt.store %51, %43, %5 : tensor<256x!tt.ptr<bf16>> loc(#loc46)
    %52 = tt.splat %arg11 : !tt.ptr<bf16> -> tensor<256x!tt.ptr<bf16>> loc(#loc47)
    %53 = tt.addptr %52, %4 : tensor<256x!tt.ptr<bf16>>, tensor<256xi32> loc(#loc47)
    tt.store %53, %43, %5 : tensor<256x!tt.ptr<bf16>> loc(#loc48)
    %54 = tt.splat %arg12 : !tt.ptr<bf16> -> tensor<256x!tt.ptr<bf16>> loc(#loc49)
    %55 = tt.addptr %54, %4 : tensor<256x!tt.ptr<bf16>>, tensor<256xi32> loc(#loc49)
    tt.store %55, %43, %5 : tensor<256x!tt.ptr<bf16>> loc(#loc50)
    %56 = tt.splat %arg13 : !tt.ptr<bf16> -> tensor<256x!tt.ptr<bf16>> loc(#loc51)
    %57 = tt.addptr %56, %4 : tensor<256x!tt.ptr<bf16>>, tensor<256xi32> loc(#loc51)
    tt.store %57, %43, %5 : tensor<256x!tt.ptr<bf16>> loc(#loc52)
    %58 = tt.splat %arg14 : !tt.ptr<bf16> -> tensor<256x!tt.ptr<bf16>> loc(#loc53)
    %59 = tt.addptr %58, %4 : tensor<256x!tt.ptr<bf16>>, tensor<256xi32> loc(#loc53)
    tt.store %59, %43, %5 : tensor<256x!tt.ptr<bf16>> loc(#loc54)
    %60 = tt.splat %arg15 : !tt.ptr<bf16> -> tensor<256x!tt.ptr<bf16>> loc(#loc55)
    %61 = tt.addptr %60, %4 : tensor<256x!tt.ptr<bf16>>, tensor<256xi32> loc(#loc55)
    tt.store %61, %43, %5 : tensor<256x!tt.ptr<bf16>> loc(#loc56)
    %62 = tt.splat %arg16 : !tt.ptr<bf16> -> tensor<256x!tt.ptr<bf16>> loc(#loc57)
    %63 = tt.addptr %62, %4 : tensor<256x!tt.ptr<bf16>>, tensor<256xi32> loc(#loc57)
    tt.store %63, %43, %5 : tensor<256x!tt.ptr<bf16>> loc(#loc58)
    %64 = tt.splat %arg17 : !tt.ptr<bf16> -> tensor<256x!tt.ptr<bf16>> loc(#loc59)
    %65 = tt.addptr %64, %4 : tensor<256x!tt.ptr<bf16>>, tensor<256xi32> loc(#loc59)
    tt.store %65, %43, %5 : tensor<256x!tt.ptr<bf16>> loc(#loc60)
    %66 = tt.splat %arg18 : !tt.ptr<bf16> -> tensor<256x!tt.ptr<bf16>> loc(#loc61)
    %67 = tt.addptr %66, %4 : tensor<256x!tt.ptr<bf16>>, tensor<256xi32> loc(#loc61)
    tt.store %67, %43, %5 : tensor<256x!tt.ptr<bf16>> loc(#loc62)
    %68 = tt.splat %arg19 : !tt.ptr<bf16> -> tensor<256x!tt.ptr<bf16>> loc(#loc63)
    %69 = tt.addptr %68, %4 : tensor<256x!tt.ptr<bf16>>, tensor<256xi32> loc(#loc63)
    tt.store %69, %43, %5 : tensor<256x!tt.ptr<bf16>> loc(#loc64)
    %70 = tt.splat %arg20 : !tt.ptr<bf16> -> tensor<256x!tt.ptr<bf16>> loc(#loc65)
    %71 = tt.addptr %70, %4 : tensor<256x!tt.ptr<bf16>>, tensor<256xi32> loc(#loc65)
    tt.store %71, %43, %5 : tensor<256x!tt.ptr<bf16>> loc(#loc66)
    %72 = tt.splat %arg21 : !tt.ptr<bf16> -> tensor<256x!tt.ptr<bf16>> loc(#loc67)
    %73 = tt.addptr %72, %4 : tensor<256x!tt.ptr<bf16>>, tensor<256xi32> loc(#loc67)
    tt.store %73, %43, %5 : tensor<256x!tt.ptr<bf16>> loc(#loc68)
    %74 = tt.splat %arg22 : !tt.ptr<bf16> -> tensor<256x!tt.ptr<bf16>> loc(#loc69)
    %75 = tt.addptr %74, %4 : tensor<256x!tt.ptr<bf16>>, tensor<256xi32> loc(#loc69)
    tt.store %75, %43, %5 : tensor<256x!tt.ptr<bf16>> loc(#loc70)
    %76 = tt.splat %arg23 : !tt.ptr<bf16> -> tensor<256x!tt.ptr<bf16>> loc(#loc71)
    %77 = tt.addptr %76, %4 : tensor<256x!tt.ptr<bf16>>, tensor<256xi32> loc(#loc71)
    tt.store %77, %43, %5 : tensor<256x!tt.ptr<bf16>> loc(#loc72)
    %78 = tt.splat %arg24 : !tt.ptr<bf16> -> tensor<256x!tt.ptr<bf16>> loc(#loc73)
    %79 = tt.addptr %78, %4 : tensor<256x!tt.ptr<bf16>>, tensor<256xi32> loc(#loc73)
    tt.store %79, %43, %5 : tensor<256x!tt.ptr<bf16>> loc(#loc74)
    %80 = tt.splat %arg25 : !tt.ptr<bf16> -> tensor<256x!tt.ptr<bf16>> loc(#loc75)
    %81 = tt.addptr %80, %4 : tensor<256x!tt.ptr<bf16>>, tensor<256xi32> loc(#loc75)
    tt.store %81, %43, %5 : tensor<256x!tt.ptr<bf16>> loc(#loc76)
    %82 = tt.splat %arg26 : !tt.ptr<bf16> -> tensor<256x!tt.ptr<bf16>> loc(#loc77)
    %83 = tt.addptr %82, %4 : tensor<256x!tt.ptr<bf16>>, tensor<256xi32> loc(#loc77)
    tt.store %83, %43, %5 : tensor<256x!tt.ptr<bf16>> loc(#loc78)
    %84 = tt.splat %arg27 : !tt.ptr<bf16> -> tensor<256x!tt.ptr<bf16>> loc(#loc79)
    %85 = tt.addptr %84, %4 : tensor<256x!tt.ptr<bf16>>, tensor<256xi32> loc(#loc79)
    tt.store %85, %43, %5 : tensor<256x!tt.ptr<bf16>> loc(#loc80)
    %86 = tt.splat %arg28 : !tt.ptr<bf16> -> tensor<256x!tt.ptr<bf16>> loc(#loc81)
    %87 = tt.addptr %86, %4 : tensor<256x!tt.ptr<bf16>>, tensor<256xi32> loc(#loc81)
    tt.store %87, %43, %5 : tensor<256x!tt.ptr<bf16>> loc(#loc82)
    %88 = tt.splat %arg29 : !tt.ptr<bf16> -> tensor<256x!tt.ptr<bf16>> loc(#loc83)
    %89 = tt.addptr %88, %4 : tensor<256x!tt.ptr<bf16>>, tensor<256xi32> loc(#loc83)
    tt.store %89, %43, %5 : tensor<256x!tt.ptr<bf16>> loc(#loc84)
    %90 = tt.splat %arg30 : !tt.ptr<bf16> -> tensor<256x!tt.ptr<bf16>> loc(#loc85)
    %91 = tt.addptr %90, %4 : tensor<256x!tt.ptr<bf16>>, tensor<256xi32> loc(#loc85)
    tt.store %91, %43, %5 : tensor<256x!tt.ptr<bf16>> loc(#loc86)
    %92 = tt.splat %arg31 : !tt.ptr<bf16> -> tensor<256x!tt.ptr<bf16>> loc(#loc87)
    %93 = tt.addptr %92, %4 : tensor<256x!tt.ptr<bf16>>, tensor<256xi32> loc(#loc87)
    tt.store %93, %43, %5 : tensor<256x!tt.ptr<bf16>> loc(#loc88)
    %94 = tt.splat %arg32 : !tt.ptr<bf16> -> tensor<256x!tt.ptr<bf16>> loc(#loc89)
    %95 = tt.addptr %94, %4 : tensor<256x!tt.ptr<bf16>>, tensor<256xi32> loc(#loc89)
    tt.store %95, %43, %5 : tensor<256x!tt.ptr<bf16>> loc(#loc90)
    %96 = tt.splat %arg33 : !tt.ptr<bf16> -> tensor<256x!tt.ptr<bf16>> loc(#loc91)
    %97 = tt.addptr %96, %4 : tensor<256x!tt.ptr<bf16>>, tensor<256xi32> loc(#loc91)
    tt.store %97, %43, %5 : tensor<256x!tt.ptr<bf16>> loc(#loc92)
    %98 = tt.splat %arg34 : !tt.ptr<bf16> -> tensor<256x!tt.ptr<bf16>> loc(#loc93)
    %99 = tt.addptr %98, %4 : tensor<256x!tt.ptr<bf16>>, tensor<256xi32> loc(#loc93)
    tt.store %99, %43, %5 : tensor<256x!tt.ptr<bf16>> loc(#loc94)
    %100 = tt.splat %arg35 : !tt.ptr<bf16> -> tensor<256x!tt.ptr<bf16>> loc(#loc95)
    %101 = tt.addptr %100, %4 : tensor<256x!tt.ptr<bf16>>, tensor<256xi32> loc(#loc95)
    tt.store %101, %43, %5 : tensor<256x!tt.ptr<bf16>> loc(#loc96)
    %102 = tt.splat %arg36 : !tt.ptr<bf16> -> tensor<256x!tt.ptr<bf16>> loc(#loc97)
    %103 = tt.addptr %102, %4 : tensor<256x!tt.ptr<bf16>>, tensor<256xi32> loc(#loc97)
    tt.store %103, %43, %5 : tensor<256x!tt.ptr<bf16>> loc(#loc98)
    %104 = tt.splat %arg37 : !tt.ptr<bf16> -> tensor<256x!tt.ptr<bf16>> loc(#loc99)
    %105 = tt.addptr %104, %4 : tensor<256x!tt.ptr<bf16>>, tensor<256xi32> loc(#loc99)
    tt.store %105, %43, %5 : tensor<256x!tt.ptr<bf16>> loc(#loc100)
    %106 = tt.splat %arg38 : !tt.ptr<bf16> -> tensor<256x!tt.ptr<bf16>> loc(#loc101)
    %107 = tt.addptr %106, %4 : tensor<256x!tt.ptr<bf16>>, tensor<256xi32> loc(#loc101)
    tt.store %107, %43, %5 : tensor<256x!tt.ptr<bf16>> loc(#loc102)
    %108 = tt.splat %arg39 : !tt.ptr<bf16> -> tensor<256x!tt.ptr<bf16>> loc(#loc103)
    %109 = tt.addptr %108, %4 : tensor<256x!tt.ptr<bf16>>, tensor<256xi32> loc(#loc103)
    tt.store %109, %43, %5 : tensor<256x!tt.ptr<bf16>> loc(#loc104)
    %110 = tt.splat %arg40 : !tt.ptr<bf16> -> tensor<256x!tt.ptr<bf16>> loc(#loc105)
    %111 = tt.addptr %110, %4 : tensor<256x!tt.ptr<bf16>>, tensor<256xi32> loc(#loc105)
    tt.store %111, %43, %5 : tensor<256x!tt.ptr<bf16>> loc(#loc106)
    %112 = tt.splat %arg41 : !tt.ptr<bf16> -> tensor<256x!tt.ptr<bf16>> loc(#loc107)
    %113 = tt.addptr %112, %4 : tensor<256x!tt.ptr<bf16>>, tensor<256xi32> loc(#loc107)
    tt.store %113, %43, %5 : tensor<256x!tt.ptr<bf16>> loc(#loc108)
    %114 = tt.splat %arg42 : !tt.ptr<bf16> -> tensor<256x!tt.ptr<bf16>> loc(#loc109)
    %115 = tt.addptr %114, %4 : tensor<256x!tt.ptr<bf16>>, tensor<256xi32> loc(#loc109)
    tt.store %115, %43, %5 : tensor<256x!tt.ptr<bf16>> loc(#loc110)
    %116 = tt.splat %arg43 : !tt.ptr<bf16> -> tensor<256x!tt.ptr<bf16>> loc(#loc111)
    %117 = tt.addptr %116, %4 : tensor<256x!tt.ptr<bf16>>, tensor<256xi32> loc(#loc111)
    tt.store %117, %43, %5 : tensor<256x!tt.ptr<bf16>> loc(#loc112)
    %118 = tt.splat %arg44 : !tt.ptr<bf16> -> tensor<256x!tt.ptr<bf16>> loc(#loc113)
    %119 = tt.addptr %118, %4 : tensor<256x!tt.ptr<bf16>>, tensor<256xi32> loc(#loc113)
    tt.store %119, %43, %5 : tensor<256x!tt.ptr<bf16>> loc(#loc114)
    %120 = tt.splat %arg45 : !tt.ptr<bf16> -> tensor<256x!tt.ptr<bf16>> loc(#loc115)
    %121 = tt.addptr %120, %4 : tensor<256x!tt.ptr<bf16>>, tensor<256xi32> loc(#loc115)
    tt.store %121, %43, %5 : tensor<256x!tt.ptr<bf16>> loc(#loc116)
    %122 = tt.splat %arg46 : !tt.ptr<bf16> -> tensor<256x!tt.ptr<bf16>> loc(#loc117)
    %123 = tt.addptr %122, %4 : tensor<256x!tt.ptr<bf16>>, tensor<256xi32> loc(#loc117)
    tt.store %123, %43, %5 : tensor<256x!tt.ptr<bf16>> loc(#loc118)
    %124 = tt.splat %arg47 : !tt.ptr<bf16> -> tensor<256x!tt.ptr<bf16>> loc(#loc119)
    %125 = tt.addptr %124, %4 : tensor<256x!tt.ptr<bf16>>, tensor<256xi32> loc(#loc119)
    tt.store %125, %43, %5 : tensor<256x!tt.ptr<bf16>> loc(#loc120)
    %126 = tt.splat %arg48 : !tt.ptr<bf16> -> tensor<256x!tt.ptr<bf16>> loc(#loc121)
    %127 = tt.addptr %126, %4 : tensor<256x!tt.ptr<bf16>>, tensor<256xi32> loc(#loc121)
    tt.store %127, %43, %5 : tensor<256x!tt.ptr<bf16>> loc(#loc122)
    %128 = tt.splat %arg49 : !tt.ptr<bf16> -> tensor<256x!tt.ptr<bf16>> loc(#loc123)
    %129 = tt.addptr %128, %4 : tensor<256x!tt.ptr<bf16>>, tensor<256xi32> loc(#loc123)
    tt.store %129, %43, %5 : tensor<256x!tt.ptr<bf16>> loc(#loc124)
    %130 = tt.splat %arg50 : !tt.ptr<bf16> -> tensor<256x!tt.ptr<bf16>> loc(#loc125)
    %131 = tt.addptr %130, %4 : tensor<256x!tt.ptr<bf16>>, tensor<256xi32> loc(#loc125)
    tt.store %131, %43, %5 : tensor<256x!tt.ptr<bf16>> loc(#loc126)
    %132 = tt.splat %arg51 : !tt.ptr<bf16> -> tensor<256x!tt.ptr<bf16>> loc(#loc127)
    %133 = tt.addptr %132, %4 : tensor<256x!tt.ptr<bf16>>, tensor<256xi32> loc(#loc127)
    tt.store %133, %43, %5 : tensor<256x!tt.ptr<bf16>> loc(#loc128)
    %134 = tt.splat %arg52 : !tt.ptr<bf16> -> tensor<256x!tt.ptr<bf16>> loc(#loc129)
    %135 = tt.addptr %134, %4 : tensor<256x!tt.ptr<bf16>>, tensor<256xi32> loc(#loc129)
    tt.store %135, %43, %5 : tensor<256x!tt.ptr<bf16>> loc(#loc130)
    %136 = tt.splat %arg53 : !tt.ptr<bf16> -> tensor<256x!tt.ptr<bf16>> loc(#loc131)
    %137 = tt.addptr %136, %4 : tensor<256x!tt.ptr<bf16>>, tensor<256xi32> loc(#loc131)
    tt.store %137, %43, %5 : tensor<256x!tt.ptr<bf16>> loc(#loc132)
    %138 = tt.splat %arg54 : !tt.ptr<bf16> -> tensor<256x!tt.ptr<bf16>> loc(#loc133)
    %139 = tt.addptr %138, %4 : tensor<256x!tt.ptr<bf16>>, tensor<256xi32> loc(#loc133)
    tt.store %139, %43, %5 : tensor<256x!tt.ptr<bf16>> loc(#loc134)
    %140 = tt.splat %arg55 : !tt.ptr<bf16> -> tensor<256x!tt.ptr<bf16>> loc(#loc135)
    %141 = tt.addptr %140, %4 : tensor<256x!tt.ptr<bf16>>, tensor<256xi32> loc(#loc135)
    tt.store %141, %43, %5 : tensor<256x!tt.ptr<bf16>> loc(#loc136)
    %142 = tt.splat %arg56 : !tt.ptr<bf16> -> tensor<256x!tt.ptr<bf16>> loc(#loc137)
    %143 = tt.addptr %142, %4 : tensor<256x!tt.ptr<bf16>>, tensor<256xi32> loc(#loc137)
    tt.store %143, %43, %5 : tensor<256x!tt.ptr<bf16>> loc(#loc138)
    %144 = tt.splat %arg57 : !tt.ptr<bf16> -> tensor<256x!tt.ptr<bf16>> loc(#loc139)
    %145 = tt.addptr %144, %4 : tensor<256x!tt.ptr<bf16>>, tensor<256xi32> loc(#loc139)
    tt.store %145, %43, %5 : tensor<256x!tt.ptr<bf16>> loc(#loc140)
    %146 = tt.splat %arg58 : !tt.ptr<bf16> -> tensor<256x!tt.ptr<bf16>> loc(#loc141)
    %147 = tt.addptr %146, %4 : tensor<256x!tt.ptr<bf16>>, tensor<256xi32> loc(#loc141)
    tt.store %147, %43, %5 : tensor<256x!tt.ptr<bf16>> loc(#loc142)
    %148 = tt.splat %arg59 : !tt.ptr<bf16> -> tensor<256x!tt.ptr<bf16>> loc(#loc143)
    %149 = tt.addptr %148, %4 : tensor<256x!tt.ptr<bf16>>, tensor<256xi32> loc(#loc143)
    tt.store %149, %43, %5 : tensor<256x!tt.ptr<bf16>> loc(#loc144)
    %150 = tt.splat %arg60 : !tt.ptr<bf16> -> tensor<256x!tt.ptr<bf16>> loc(#loc145)
    %151 = tt.addptr %150, %4 : tensor<256x!tt.ptr<bf16>>, tensor<256xi32> loc(#loc145)
    tt.store %151, %43, %5 : tensor<256x!tt.ptr<bf16>> loc(#loc146)
    %152 = tt.splat %arg61 : !tt.ptr<bf16> -> tensor<256x!tt.ptr<bf16>> loc(#loc147)
    %153 = tt.addptr %152, %4 : tensor<256x!tt.ptr<bf16>>, tensor<256xi32> loc(#loc147)
    tt.store %153, %43, %5 : tensor<256x!tt.ptr<bf16>> loc(#loc148)
    %154 = tt.splat %arg62 : !tt.ptr<bf16> -> tensor<256x!tt.ptr<bf16>> loc(#loc149)
    %155 = tt.addptr %154, %4 : tensor<256x!tt.ptr<bf16>>, tensor<256xi32> loc(#loc149)
    tt.store %155, %43, %5 : tensor<256x!tt.ptr<bf16>> loc(#loc150)
    %156 = tt.splat %arg63 : !tt.ptr<bf16> -> tensor<256x!tt.ptr<bf16>> loc(#loc151)
    %157 = tt.addptr %156, %4 : tensor<256x!tt.ptr<bf16>>, tensor<256xi32> loc(#loc151)
    tt.store %157, %43, %5 : tensor<256x!tt.ptr<bf16>> loc(#loc152)
    %158 = tt.splat %arg64 : !tt.ptr<bf16> -> tensor<256x!tt.ptr<bf16>> loc(#loc153)
    %159 = tt.addptr %158, %4 : tensor<256x!tt.ptr<bf16>>, tensor<256xi32> loc(#loc153)
    tt.store %159, %43, %5 : tensor<256x!tt.ptr<bf16>> loc(#loc154)
    %160 = tt.splat %arg65 : !tt.ptr<bf16> -> tensor<256x!tt.ptr<bf16>> loc(#loc155)
    %161 = tt.addptr %160, %4 : tensor<256x!tt.ptr<bf16>>, tensor<256xi32> loc(#loc155)
    tt.store %161, %43, %5 : tensor<256x!tt.ptr<bf16>> loc(#loc156)
    %162 = tt.splat %arg66 : !tt.ptr<bf16> -> tensor<256x!tt.ptr<bf16>> loc(#loc157)
    %163 = tt.addptr %162, %4 : tensor<256x!tt.ptr<bf16>>, tensor<256xi32> loc(#loc157)
    tt.store %163, %43, %5 : tensor<256x!tt.ptr<bf16>> loc(#loc158)
    %164 = tt.splat %arg67 : !tt.ptr<bf16> -> tensor<256x!tt.ptr<bf16>> loc(#loc159)
    %165 = tt.addptr %164, %4 : tensor<256x!tt.ptr<bf16>>, tensor<256xi32> loc(#loc159)
    tt.store %165, %43, %5 : tensor<256x!tt.ptr<bf16>> loc(#loc160)
    %166 = tt.splat %arg68 : !tt.ptr<bf16> -> tensor<256x!tt.ptr<bf16>> loc(#loc161)
    %167 = tt.addptr %166, %4 : tensor<256x!tt.ptr<bf16>>, tensor<256xi32> loc(#loc161)
    tt.store %167, %43, %5 : tensor<256x!tt.ptr<bf16>> loc(#loc162)
    tt.return loc(#loc163)
  } loc(#loc)
} loc(#loc)
#loc1 = loc(unknown)
#loc2 = loc("/opt/inductor_cache/lz/clzlidfkb7q6z5g4kmago5h7seyetlxr35p7katfd3nvexgi246o.py":20:28)
#loc3 = loc("/opt/inductor_cache/lz/clzlidfkb7q6z5g4kmago5h7seyetlxr35p7katfd3nvexgi246o.py":20:33)
#loc4 = loc("/opt/inductor_cache/lz/clzlidfkb7q6z5g4kmago5h7seyetlxr35p7katfd3nvexgi246o.py":21:36)
#loc5 = loc("/opt/inductor_cache/lz/clzlidfkb7q6z5g4kmago5h7seyetlxr35p7katfd3nvexgi246o.py":21:23)
#loc6 = loc("/opt/inductor_cache/lz/clzlidfkb7q6z5g4kmago5h7seyetlxr35p7katfd3nvexgi246o.py":22:21)
#loc7 = loc("/opt/inductor_cache/lz/clzlidfkb7q6z5g4kmago5h7seyetlxr35p7katfd3nvexgi246o.py":24:30)
#loc8 = loc("/opt/inductor_cache/lz/clzlidfkb7q6z5g4kmago5h7seyetlxr35p7katfd3nvexgi246o.py":24:35)
#loc9 = loc("/opt/inductor_cache/lz/clzlidfkb7q6z5g4kmago5h7seyetlxr35p7katfd3nvexgi246o.py":24:45)
#loc10 = loc("/opt/inductor_cache/lz/clzlidfkb7q6z5g4kmago5h7seyetlxr35p7katfd3nvexgi246o.py":25:30)
#loc11 = loc("/opt/inductor_cache/lz/clzlidfkb7q6z5g4kmago5h7seyetlxr35p7katfd3nvexgi246o.py":25:35)
#loc12 = loc("/opt/inductor_cache/lz/clzlidfkb7q6z5g4kmago5h7seyetlxr35p7katfd3nvexgi246o.py":25:45)
#loc13 = loc("/opt/inductor_cache/lz/clzlidfkb7q6z5g4kmago5h7seyetlxr35p7katfd3nvexgi246o.py":26:30)
#loc14 = loc("/opt/inductor_cache/lz/clzlidfkb7q6z5g4kmago5h7seyetlxr35p7katfd3nvexgi246o.py":26:35)
#loc15 = loc("/opt/inductor_cache/lz/clzlidfkb7q6z5g4kmago5h7seyetlxr35p7katfd3nvexgi246o.py":26:45)
#loc16 = loc("/opt/inductor_cache/lz/clzlidfkb7q6z5g4kmago5h7seyetlxr35p7katfd3nvexgi246o.py":27:30)
#loc17 = loc("/opt/inductor_cache/lz/clzlidfkb7q6z5g4kmago5h7seyetlxr35p7katfd3nvexgi246o.py":27:35)
#loc18 = loc("/opt/inductor_cache/lz/clzlidfkb7q6z5g4kmago5h7seyetlxr35p7katfd3nvexgi246o.py":27:45)
#loc19 = loc("/opt/inductor_cache/lz/clzlidfkb7q6z5g4kmago5h7seyetlxr35p7katfd3nvexgi246o.py":28:34)
#loc20 = loc("/opt/inductor_cache/lz/clzlidfkb7q6z5g4kmago5h7seyetlxr35p7katfd3nvexgi246o.py":28:39)
#loc21 = loc("/opt/inductor_cache/lz/clzlidfkb7q6z5g4kmago5h7seyetlxr35p7katfd3nvexgi246o.py":28:49)
#loc22 = loc("/opt/inductor_cache/lz/clzlidfkb7q6z5g4kmago5h7seyetlxr35p7katfd3nvexgi246o.py":29:30)
#loc23 = loc("/opt/inductor_cache/lz/clzlidfkb7q6z5g4kmago5h7seyetlxr35p7katfd3nvexgi246o.py":29:35)
#loc24 = loc("/opt/inductor_cache/lz/clzlidfkb7q6z5g4kmago5h7seyetlxr35p7katfd3nvexgi246o.py":29:45)
#loc25 = loc("/opt/inductor_cache/lz/clzlidfkb7q6z5g4kmago5h7seyetlxr35p7katfd3nvexgi246o.py":30:18)
#loc26 = loc("/opt/inductor_cache/lz/clzlidfkb7q6z5g4kmago5h7seyetlxr35p7katfd3nvexgi246o.py":31:18)
#loc27 = loc("/opt/inductor_cache/lz/clzlidfkb7q6z5g4kmago5h7seyetlxr35p7katfd3nvexgi246o.py":32:18)
#loc28 = loc("/opt/inductor_cache/lz/clzlidfkb7q6z5g4kmago5h7seyetlxr35p7katfd3nvexgi246o.py":33:18)
#loc29 = loc("/opt/inductor_cache/lz/clzlidfkb7q6z5g4kmago5h7seyetlxr35p7katfd3nvexgi246o.py":34:19)
#loc30 = loc("/usr/local/lib/python3.10/site-packages/triton/language/standard.py":51:30)
#loc31 = loc("/opt/inductor_cache/lz/clzlidfkb7q6z5g4kmago5h7seyetlxr35p7katfd3nvexgi246o.py":36:23)
#loc32 = loc("/usr/local/lib/python3.10/site-packages/triton/language/standard.py":51:29)
#loc33 = loc("/usr/local/lib/python3.10/site-packages/triton/language/standard.py":51:20)
#loc34 = loc("/usr/local/lib/python3.10/site-packages/triton/language/standard.py":51:16)
#loc35 = loc("/opt/inductor_cache/lz/clzlidfkb7q6z5g4kmago5h7seyetlxr35p7katfd3nvexgi246o.py":37:20)
#loc36 = loc("/opt/inductor_cache/lz/clzlidfkb7q6z5g4kmago5h7seyetlxr35p7katfd3nvexgi246o.py":39:40)
#loc37 = loc("/opt/inductor_cache/lz/clzlidfkb7q6z5g4kmago5h7seyetlxr35p7katfd3nvexgi246o.py":40:25)
#loc38 = loc("/opt/inductor_cache/lz/clzlidfkb7q6z5g4kmago5h7seyetlxr35p7katfd3nvexgi246o.py":40:37)
#loc39 = loc("/opt/inductor_cache/lz/clzlidfkb7q6z5g4kmago5h7seyetlxr35p7katfd3nvexgi246o.py":41:25)
#loc40 = loc("/opt/inductor_cache/lz/clzlidfkb7q6z5g4kmago5h7seyetlxr35p7katfd3nvexgi246o.py":41:37)
#loc41 = loc("/opt/inductor_cache/lz/clzlidfkb7q6z5g4kmago5h7seyetlxr35p7katfd3nvexgi246o.py":42:25)
#loc42 = loc("/opt/inductor_cache/lz/clzlidfkb7q6z5g4kmago5h7seyetlxr35p7katfd3nvexgi246o.py":42:37)
#loc43 = loc("/opt/inductor_cache/lz/clzlidfkb7q6z5g4kmago5h7seyetlxr35p7katfd3nvexgi246o.py":43:25)
#loc44 = loc("/opt/inductor_cache/lz/clzlidfkb7q6z5g4kmago5h7seyetlxr35p7katfd3nvexgi246o.py":43:37)
#loc45 = loc("/opt/inductor_cache/lz/clzlidfkb7q6z5g4kmago5h7seyetlxr35p7katfd3nvexgi246o.py":44:25)
#loc46 = loc("/opt/inductor_cache/lz/clzlidfkb7q6z5g4kmago5h7seyetlxr35p7katfd3nvexgi246o.py":44:37)
#loc47 = loc("/opt/inductor_cache/lz/clzlidfkb7q6z5g4kmago5h7seyetlxr35p7katfd3nvexgi246o.py":45:25)
#loc48 = loc("/opt/inductor_cache/lz/clzlidfkb7q6z5g4kmago5h7seyetlxr35p7katfd3nvexgi246o.py":45:37)
#loc49 = loc("/opt/inductor_cache/lz/clzlidfkb7q6z5g4kmago5h7seyetlxr35p7katfd3nvexgi246o.py":46:25)
#loc50 = loc("/opt/inductor_cache/lz/clzlidfkb7q6z5g4kmago5h7seyetlxr35p7katfd3nvexgi246o.py":46:37)
#loc51 = loc("/opt/inductor_cache/lz/clzlidfkb7q6z5g4kmago5h7seyetlxr35p7katfd3nvexgi246o.py":47:25)
#loc52 = loc("/opt/inductor_cache/lz/clzlidfkb7q6z5g4kmago5h7seyetlxr35p7katfd3nvexgi246o.py":47:37)
#loc53 = loc("/opt/inductor_cache/lz/clzlidfkb7q6z5g4kmago5h7seyetlxr35p7katfd3nvexgi246o.py":48:25)
#loc54 = loc("/opt/inductor_cache/lz/clzlidfkb7q6z5g4kmago5h7seyetlxr35p7katfd3nvexgi246o.py":48:37)
#loc55 = loc("/opt/inductor_cache/lz/clzlidfkb7q6z5g4kmago5h7seyetlxr35p7katfd3nvexgi246o.py":49:25)
#loc56 = loc("/opt/inductor_cache/lz/clzlidfkb7q6z5g4kmago5h7seyetlxr35p7katfd3nvexgi246o.py":49:37)
#loc57 = loc("/opt/inductor_cache/lz/clzlidfkb7q6z5g4kmago5h7seyetlxr35p7katfd3nvexgi246o.py":50:26)
#loc58 = loc("/opt/inductor_cache/lz/clzlidfkb7q6z5g4kmago5h7seyetlxr35p7katfd3nvexgi246o.py":50:38)
#loc59 = loc("/opt/inductor_cache/lz/clzlidfkb7q6z5g4kmago5h7seyetlxr35p7katfd3nvexgi246o.py":51:26)
#loc60 = loc("/opt/inductor_cache/lz/clzlidfkb7q6z5g4kmago5h7seyetlxr35p7katfd3nvexgi246o.py":51:38)
#loc61 = loc("/opt/inductor_cache/lz/clzlidfkb7q6z5g4kmago5h7seyetlxr35p7katfd3nvexgi246o.py":52:26)
#loc62 = loc("/opt/inductor_cache/lz/clzlidfkb7q6z5g4kmago5h7seyetlxr35p7katfd3nvexgi246o.py":52:38)
#loc63 = loc("/opt/inductor_cache/lz/clzlidfkb7q6z5g4kmago5h7seyetlxr35p7katfd3nvexgi246o.py":53:26)
#loc64 = loc("/opt/inductor_cache/lz/clzlidfkb7q6z5g4kmago5h7seyetlxr35p7katfd3nvexgi246o.py":53:38)
#loc65 = loc("/opt/inductor_cache/lz/clzlidfkb7q6z5g4kmago5h7seyetlxr35p7katfd3nvexgi246o.py":54:26)
#loc66 = loc("/opt/inductor_cache/lz/clzlidfkb7q6z5g4kmago5h7seyetlxr35p7katfd3nvexgi246o.py":54:38)
#loc67 = loc("/opt/inductor_cache/lz/clzlidfkb7q6z5g4kmago5h7seyetlxr35p7katfd3nvexgi246o.py":55:26)
#loc68 = loc("/opt/inductor_cache/lz/clzlidfkb7q6z5g4kmago5h7seyetlxr35p7katfd3nvexgi246o.py":55:38)
#loc69 = loc("/opt/inductor_cache/lz/clzlidfkb7q6z5g4kmago5h7seyetlxr35p7katfd3nvexgi246o.py":56:26)
#loc70 = loc("/opt/inductor_cache/lz/clzlidfkb7q6z5g4kmago5h7seyetlxr35p7katfd3nvexgi246o.py":56:38)
#loc71 = loc("/opt/inductor_cache/lz/clzlidfkb7q6z5g4kmago5h7seyetlxr35p7katfd3nvexgi246o.py":57:26)
#loc72 = loc("/opt/inductor_cache/lz/clzlidfkb7q6z5g4kmago5h7seyetlxr35p7katfd3nvexgi246o.py":57:38)
#loc73 = loc("/opt/inductor_cache/lz/clzlidfkb7q6z5g4kmago5h7seyetlxr35p7katfd3nvexgi246o.py":58:26)
#loc74 = loc("/opt/inductor_cache/lz/clzlidfkb7q6z5g4kmago5h7seyetlxr35p7katfd3nvexgi246o.py":58:38)
#loc75 = loc("/opt/inductor_cache/lz/clzlidfkb7q6z5g4kmago5h7seyetlxr35p7katfd3nvexgi246o.py":59:26)
#loc76 = loc("/opt/inductor_cache/lz/clzlidfkb7q6z5g4kmago5h7seyetlxr35p7katfd3nvexgi246o.py":59:38)
#loc77 = loc("/opt/inductor_cache/lz/clzlidfkb7q6z5g4kmago5h7seyetlxr35p7katfd3nvexgi246o.py":60:26)
#loc78 = loc("/opt/inductor_cache/lz/clzlidfkb7q6z5g4kmago5h7seyetlxr35p7katfd3nvexgi246o.py":60:38)
#loc79 = loc("/opt/inductor_cache/lz/clzlidfkb7q6z5g4kmago5h7seyetlxr35p7katfd3nvexgi246o.py":61:26)
#loc80 = loc("/opt/inductor_cache/lz/clzlidfkb7q6z5g4kmago5h7seyetlxr35p7katfd3nvexgi246o.py":61:38)
#loc81 = loc("/opt/inductor_cache/lz/clzlidfkb7q6z5g4kmago5h7seyetlxr35p7katfd3nvexgi246o.py":62:26)
#loc82 = loc("/opt/inductor_cache/lz/clzlidfkb7q6z5g4kmago5h7seyetlxr35p7katfd3nvexgi246o.py":62:38)
#loc83 = loc("/opt/inductor_cache/lz/clzlidfkb7q6z5g4kmago5h7seyetlxr35p7katfd3nvexgi246o.py":63:26)
#loc84 = loc("/opt/inductor_cache/lz/clzlidfkb7q6z5g4kmago5h7seyetlxr35p7katfd3nvexgi246o.py":63:38)
#loc85 = loc("/opt/inductor_cache/lz/clzlidfkb7q6z5g4kmago5h7seyetlxr35p7katfd3nvexgi246o.py":64:26)
#loc86 = loc("/opt/inductor_cache/lz/clzlidfkb7q6z5g4kmago5h7seyetlxr35p7katfd3nvexgi246o.py":64:38)
#loc87 = loc("/opt/inductor_cache/lz/clzlidfkb7q6z5g4kmago5h7seyetlxr35p7katfd3nvexgi246o.py":65:26)
#loc88 = loc("/opt/inductor_cache/lz/clzlidfkb7q6z5g4kmago5h7seyetlxr35p7katfd3nvexgi246o.py":65:38)
#loc89 = loc("/opt/inductor_cache/lz/clzlidfkb7q6z5g4kmago5h7seyetlxr35p7katfd3nvexgi246o.py":66:26)
#loc90 = loc("/opt/inductor_cache/lz/clzlidfkb7q6z5g4kmago5h7seyetlxr35p7katfd3nvexgi246o.py":66:38)
#loc91 = loc("/opt/inductor_cache/lz/clzlidfkb7q6z5g4kmago5h7seyetlxr35p7katfd3nvexgi246o.py":67:26)
#loc92 = loc("/opt/inductor_cache/lz/clzlidfkb7q6z5g4kmago5h7seyetlxr35p7katfd3nvexgi246o.py":67:38)
#loc93 = loc("/opt/inductor_cache/lz/clzlidfkb7q6z5g4kmago5h7seyetlxr35p7katfd3nvexgi246o.py":68:26)
#loc94 = loc("/opt/inductor_cache/lz/clzlidfkb7q6z5g4kmago5h7seyetlxr35p7katfd3nvexgi246o.py":68:38)
#loc95 = loc("/opt/inductor_cache/lz/clzlidfkb7q6z5g4kmago5h7seyetlxr35p7katfd3nvexgi246o.py":69:26)
#loc96 = loc("/opt/inductor_cache/lz/clzlidfkb7q6z5g4kmago5h7seyetlxr35p7katfd3nvexgi246o.py":69:38)
#loc97 = loc("/opt/inductor_cache/lz/clzlidfkb7q6z5g4kmago5h7seyetlxr35p7katfd3nvexgi246o.py":70:26)
#loc98 = loc("/opt/inductor_cache/lz/clzlidfkb7q6z5g4kmago5h7seyetlxr35p7katfd3nvexgi246o.py":70:38)
#loc99 = loc("/opt/inductor_cache/lz/clzlidfkb7q6z5g4kmago5h7seyetlxr35p7katfd3nvexgi246o.py":71:26)
#loc100 = loc("/opt/inductor_cache/lz/clzlidfkb7q6z5g4kmago5h7seyetlxr35p7katfd3nvexgi246o.py":71:38)
#loc101 = loc("/opt/inductor_cache/lz/clzlidfkb7q6z5g4kmago5h7seyetlxr35p7katfd3nvexgi246o.py":72:26)
#loc102 = loc("/opt/inductor_cache/lz/clzlidfkb7q6z5g4kmago5h7seyetlxr35p7katfd3nvexgi246o.py":72:38)
#loc103 = loc("/opt/inductor_cache/lz/clzlidfkb7q6z5g4kmago5h7seyetlxr35p7katfd3nvexgi246o.py":73:26)
#loc104 = loc("/opt/inductor_cache/lz/clzlidfkb7q6z5g4kmago5h7seyetlxr35p7katfd3nvexgi246o.py":73:38)
#loc105 = loc("/opt/inductor_cache/lz/clzlidfkb7q6z5g4kmago5h7seyetlxr35p7katfd3nvexgi246o.py":74:26)
#loc106 = loc("/opt/inductor_cache/lz/clzlidfkb7q6z5g4kmago5h7seyetlxr35p7katfd3nvexgi246o.py":74:38)
#loc107 = loc("/opt/inductor_cache/lz/clzlidfkb7q6z5g4kmago5h7seyetlxr35p7katfd3nvexgi246o.py":75:26)
#loc108 = loc("/opt/inductor_cache/lz/clzlidfkb7q6z5g4kmago5h7seyetlxr35p7katfd3nvexgi246o.py":75:38)
#loc109 = loc("/opt/inductor_cache/lz/clzlidfkb7q6z5g4kmago5h7seyetlxr35p7katfd3nvexgi246o.py":76:26)
#loc110 = loc("/opt/inductor_cache/lz/clzlidfkb7q6z5g4kmago5h7seyetlxr35p7katfd3nvexgi246o.py":76:38)
#loc111 = loc("/opt/inductor_cache/lz/clzlidfkb7q6z5g4kmago5h7seyetlxr35p7katfd3nvexgi246o.py":77:26)
#loc112 = loc("/opt/inductor_cache/lz/clzlidfkb7q6z5g4kmago5h7seyetlxr35p7katfd3nvexgi246o.py":77:38)
#loc113 = loc("/opt/inductor_cache/lz/clzlidfkb7q6z5g4kmago5h7seyetlxr35p7katfd3nvexgi246o.py":78:26)
#loc114 = loc("/opt/inductor_cache/lz/clzlidfkb7q6z5g4kmago5h7seyetlxr35p7katfd3nvexgi246o.py":78:38)
#loc115 = loc("/opt/inductor_cache/lz/clzlidfkb7q6z5g4kmago5h7seyetlxr35p7katfd3nvexgi246o.py":79:26)
#loc116 = loc("/opt/inductor_cache/lz/clzlidfkb7q6z5g4kmago5h7seyetlxr35p7katfd3nvexgi246o.py":79:38)
#loc117 = loc("/opt/inductor_cache/lz/clzlidfkb7q6z5g4kmago5h7seyetlxr35p7katfd3nvexgi246o.py":80:26)
#loc118 = loc("/opt/inductor_cache/lz/clzlidfkb7q6z5g4kmago5h7seyetlxr35p7katfd3nvexgi246o.py":80:38)
#loc119 = loc("/opt/inductor_cache/lz/clzlidfkb7q6z5g4kmago5h7seyetlxr35p7katfd3nvexgi246o.py":81:26)
#loc120 = loc("/opt/inductor_cache/lz/clzlidfkb7q6z5g4kmago5h7seyetlxr35p7katfd3nvexgi246o.py":81:38)
#loc121 = loc("/opt/inductor_cache/lz/clzlidfkb7q6z5g4kmago5h7seyetlxr35p7katfd3nvexgi246o.py":82:26)
#loc122 = loc("/opt/inductor_cache/lz/clzlidfkb7q6z5g4kmago5h7seyetlxr35p7katfd3nvexgi246o.py":82:38)
#loc123 = loc("/opt/inductor_cache/lz/clzlidfkb7q6z5g4kmago5h7seyetlxr35p7katfd3nvexgi246o.py":83:26)
#loc124 = loc("/opt/inductor_cache/lz/clzlidfkb7q6z5g4kmago5h7seyetlxr35p7katfd3nvexgi246o.py":83:38)
#loc125 = loc("/opt/inductor_cache/lz/clzlidfkb7q6z5g4kmago5h7seyetlxr35p7katfd3nvexgi246o.py":84:26)
#loc126 = loc("/opt/inductor_cache/lz/clzlidfkb7q6z5g4kmago5h7seyetlxr35p7katfd3nvexgi246o.py":84:38)
#loc127 = loc("/opt/inductor_cache/lz/clzlidfkb7q6z5g4kmago5h7seyetlxr35p7katfd3nvexgi246o.py":85:26)
#loc128 = loc("/opt/inductor_cache/lz/clzlidfkb7q6z5g4kmago5h7seyetlxr35p7katfd3nvexgi246o.py":85:38)
#loc129 = loc("/opt/inductor_cache/lz/clzlidfkb7q6z5g4kmago5h7seyetlxr35p7katfd3nvexgi246o.py":86:26)
#loc130 = loc("/opt/inductor_cache/lz/clzlidfkb7q6z5g4kmago5h7seyetlxr35p7katfd3nvexgi246o.py":86:38)
#loc131 = loc("/opt/inductor_cache/lz/clzlidfkb7q6z5g4kmago5h7seyetlxr35p7katfd3nvexgi246o.py":87:26)
#loc132 = loc("/opt/inductor_cache/lz/clzlidfkb7q6z5g4kmago5h7seyetlxr35p7katfd3nvexgi246o.py":87:38)
#loc133 = loc("/opt/inductor_cache/lz/clzlidfkb7q6z5g4kmago5h7seyetlxr35p7katfd3nvexgi246o.py":88:26)
#loc134 = loc("/opt/inductor_cache/lz/clzlidfkb7q6z5g4kmago5h7seyetlxr35p7katfd3nvexgi246o.py":88:38)
#loc135 = loc("/opt/inductor_cache/lz/clzlidfkb7q6z5g4kmago5h7seyetlxr35p7katfd3nvexgi246o.py":89:26)
#loc136 = loc("/opt/inductor_cache/lz/clzlidfkb7q6z5g4kmago5h7seyetlxr35p7katfd3nvexgi246o.py":89:38)
#loc137 = loc("/opt/inductor_cache/lz/clzlidfkb7q6z5g4kmago5h7seyetlxr35p7katfd3nvexgi246o.py":90:26)
#loc138 = loc("/opt/inductor_cache/lz/clzlidfkb7q6z5g4kmago5h7seyetlxr35p7katfd3nvexgi246o.py":90:38)
#loc139 = loc("/opt/inductor_cache/lz/clzlidfkb7q6z5g4kmago5h7seyetlxr35p7katfd3nvexgi246o.py":91:26)
#loc140 = loc("/opt/inductor_cache/lz/clzlidfkb7q6z5g4kmago5h7seyetlxr35p7katfd3nvexgi246o.py":91:38)
#loc141 = loc("/opt/inductor_cache/lz/clzlidfkb7q6z5g4kmago5h7seyetlxr35p7katfd3nvexgi246o.py":92:26)
#loc142 = loc("/opt/inductor_cache/lz/clzlidfkb7q6z5g4kmago5h7seyetlxr35p7katfd3nvexgi246o.py":92:38)
#loc143 = loc("/opt/inductor_cache/lz/clzlidfkb7q6z5g4kmago5h7seyetlxr35p7katfd3nvexgi246o.py":93:26)
#loc144 = loc("/opt/inductor_cache/lz/clzlidfkb7q6z5g4kmago5h7seyetlxr35p7katfd3nvexgi246o.py":93:38)
#loc145 = loc("/opt/inductor_cache/lz/clzlidfkb7q6z5g4kmago5h7seyetlxr35p7katfd3nvexgi246o.py":94:26)
#loc146 = loc("/opt/inductor_cache/lz/clzlidfkb7q6z5g4kmago5h7seyetlxr35p7katfd3nvexgi246o.py":94:38)
#loc147 = loc("/opt/inductor_cache/lz/clzlidfkb7q6z5g4kmago5h7seyetlxr35p7katfd3nvexgi246o.py":95:26)
#loc148 = loc("/opt/inductor_cache/lz/clzlidfkb7q6z5g4kmago5h7seyetlxr35p7katfd3nvexgi246o.py":95:38)
#loc149 = loc("/opt/inductor_cache/lz/clzlidfkb7q6z5g4kmago5h7seyetlxr35p7katfd3nvexgi246o.py":96:26)
#loc150 = loc("/opt/inductor_cache/lz/clzlidfkb7q6z5g4kmago5h7seyetlxr35p7katfd3nvexgi246o.py":96:38)
#loc151 = loc("/opt/inductor_cache/lz/clzlidfkb7q6z5g4kmago5h7seyetlxr35p7katfd3nvexgi246o.py":97:26)
#loc152 = loc("/opt/inductor_cache/lz/clzlidfkb7q6z5g4kmago5h7seyetlxr35p7katfd3nvexgi246o.py":97:38)
#loc153 = loc("/opt/inductor_cache/lz/clzlidfkb7q6z5g4kmago5h7seyetlxr35p7katfd3nvexgi246o.py":98:26)
#loc154 = loc("/opt/inductor_cache/lz/clzlidfkb7q6z5g4kmago5h7seyetlxr35p7katfd3nvexgi246o.py":98:38)
#loc155 = loc("/opt/inductor_cache/lz/clzlidfkb7q6z5g4kmago5h7seyetlxr35p7katfd3nvexgi246o.py":99:26)
#loc156 = loc("/opt/inductor_cache/lz/clzlidfkb7q6z5g4kmago5h7seyetlxr35p7katfd3nvexgi246o.py":99:38)
#loc157 = loc("/opt/inductor_cache/lz/clzlidfkb7q6z5g4kmago5h7seyetlxr35p7katfd3nvexgi246o.py":100:26)
#loc158 = loc("/opt/inductor_cache/lz/clzlidfkb7q6z5g4kmago5h7seyetlxr35p7katfd3nvexgi246o.py":100:38)
#loc159 = loc("/opt/inductor_cache/lz/clzlidfkb7q6z5g4kmago5h7seyetlxr35p7katfd3nvexgi246o.py":101:26)
#loc160 = loc("/opt/inductor_cache/lz/clzlidfkb7q6z5g4kmago5h7seyetlxr35p7katfd3nvexgi246o.py":101:38)
#loc161 = loc("/opt/inductor_cache/lz/clzlidfkb7q6z5g4kmago5h7seyetlxr35p7katfd3nvexgi246o.py":102:26)
#loc162 = loc("/opt/inductor_cache/lz/clzlidfkb7q6z5g4kmago5h7seyetlxr35p7katfd3nvexgi246o.py":102:38)
#loc163 = loc("/opt/inductor_cache/lz/clzlidfkb7q6z5g4kmago5h7seyetlxr35p7katfd3nvexgi246o.py":102:4)
#loc164 = loc(callsite(#loc30 at #loc31))
#loc165 = loc(callsite(#loc32 at #loc31))
#loc166 = loc(callsite(#loc33 at #loc31))
#loc167 = loc(callsite(#loc34 at #loc31))
